exp_52_ep_106/head_conv3.pt (torch, 298159 bytes, 5 tensors)

conv.weight f4 [64, 128, 3, 3]
00000000: aa91 cabd 8265 6dbd 9387 59bd dd55 f5bd
00000010: 05df b6bd 7940 7dbd b130 e3bd da26 a0bd
00000020: 9f58 31bd 4a23 86bd 3f24 1cbd 77c6 95bd
00000030: 8e42 84bd 6176 3abd e938 b7bd b10b e1bd
00000040: 61d0 85bd cb61 cebd 4a9a f5bd d465 c1bd
00000050: 54a1 9bbd 13d0 cebd 8aa9 aebd a345 afbd
00000060: 99f5 0fbe 07c3 06be 67f6 ecbd bda4 e8bc
00000070: 598f 0c3d 18de 563d 0164 5cbd 4736 153d
00000080: a7d6 f63c 2150 edbd a878 5ebd 98ed 0c3c
00000090: 3633 c03e 9025 f9bd cdb0 2dbf 3128 a73d
000000a0: 208e 8fbe 9df8 3fbe 6c89 d5be e710 60be
000000b0: 40ac c6bd bd16 c0bd fffe 81bd fc2f 6cbc
000000c0: 2602 c9bd fd39 90bc 658c 233d 02bd 76bd
000000d0: 00ea c1ba 2240 8a3c 925b 98be fdca 29be
000000e0: ebec 51bd 48cb 33be 9b51 9dbd 35c9 8c3d
000000f0: 6515 19be 8925 cd3b ae21 d33d d73d 0d3d
00000100: 3645 b4bb 38e2 9e3d 0b9e ef3b a668 883d
00000110: b29a a53d ca8d 5fbb 178b 36bd fc69 263d
00000120: 8901 e1bd 09fd b4bd a0f2 a6bd ba7f d5bd
00000130: b5d4 adbd 65e8 bebd 7098 08be 60db e3bd
00000140: 34be ddbd 96e8 a9bd 75c0 e1bc fe88 8cbd
00000150: d705 c7bd ea60 53bd 92bb 45bd 2e53 28be
00000160: 9fc7 a6bd 408b 78bc 9ae1 92bd ad79 733b
00000170: fdd4 ff3b 5a68 8bbd 6daa bbb9 14b9 9ebc
00000180: b16d fabd df23 8ebd 2887 5fbc c4ab efbc
00000190: dffb bcbc 5dc1 d73c e25a b3bd 541f cd3c
000001a0: bbb4 363c 003e aabd 267a 3bbd 67ec 4ebd
000001b0: 0e2b f0bd cffa b2bd 6759 91bd 1edb 00be
000001c0: 0956 b9bd d001 b6bd ff67 0cbe 23d7 06be
000001d0: aa3b fabd f7a0 81bd c982 0cbe 45dd 1dbe
000001e0: 5b48 81bd ca1c d6bd f452 1dbe 0c17 8dbe
000001f0: 512d 81be 59c9 d4be 7ccd abbd a69b d2bc
00000200: 151c 83bd f16a a3bd 94f7 97bc 3e6e e0bd
00000210: deeb 29be ede8 04be dfb1 ecbd a36e 343e
00000220: 4a9d c3bd 8d45 94be b7c6 87bb 2229 cbbd
00000230: ccbf 66be bc96 25be a0f4 90be 09e1 89be
00000240: 9c00 40bd 846c 663d c04a 8c3c 9fd9 89bd
00000250: 6845 033d d40c 7f3d 37d1 17be e88f 0cbd
00000260: 9140 e73d af82 ecbd 2711 cebd e58c 9bbd
00000270: 937f d6bd b2b2 c3bd 6338 a1bd b2c7 0ebe
00000280: 8738 d1bd 6a67 c6bd 1c32 8f3e 5442 2a3e
00000290: 59e8 a7be 921f 1b3e 5855 26be 7efb 84be
000002a0: 25de a8be b778 c2be 5fd4 f4bd 2a1d 5ebd
000002b0: 4ac1 09bd 6389 04bd 872f 27bd 5ca2 3a3c
000002c0: f636 be3c 2b8a 55bd 6273 823c 93a8 e43c
000002d0: d131 95be 6c98 42be 9dd6 19be c6ab 47be
000002e0: ee7b 0abe e48e db3b b6ea 4bbe d20f 4f39
000002f0: 5677 b63d 0aed 8b3d f0bc b43c 00ba 39be
00000300: 5f8d 8f3d 701e cebc bdc4 e7bd 7ab4 a73d
00000310: 59a2 4f3c 3764 eebc e4a3 00be dc13 eebd
00000320: 7c14 cfbd 6839 02be 0d11 d7bd 9ccd e2bd
00000330: 9322 03be 580b 1fbe 608a 2abe 67ab 693c
00000340: 076a 913d 2c87 973a 4cad f4bc 1211 783d
00000350: 003b 6f3d f49c 05be 7b8c 8abc 87aa a23d
00000360: 59f7 d23c 9263 bb3d 39c9 163e fc46 9abc
00000370: bbcf 673d 4460 063e d9bb c4bd 866d 85bc
00000380: 80cf 593e 72fc 0a3c 19ab 9c3d d7c0 333d
00000390: 96a6 00bd 6ebc 273d 484e cb3c 09ea 03be
000003a0: f804 60bd 143d 7b3d 8a0a 06be 23c1 b2bd
000003b0: 4c6c 57bc 481e 8fbd c6db 02ba bcf2 9e3d
000003c0: cfbf 1bbd 7c85 a53c 10b9 dd3d d8c4 3f3c
000003d0: 6d34 ba3d fa53 c63d 677e 18bd 8b57 433d
000003e0: b8dd fb3d f152 09be db06 8b3a 1647 1f3e
000003f0: d401 01be 1b71 b0bd a2df 88bd 1e4c e5bd
-0.098910645 -0.057958134 -0.05310781 -0.11979268 -0.08929256 -0.061829064 -0.110932715 -0.0781991
-0.043297406 -0.065496996 -0.038120504 -0.07313245 -0.06458007 -0.04552305 -0.089464016 -0.10988558
-0.06533886 -0.10077246 -0.11992319 -0.0944325 -0.0759913 -0.10098281 -0.08528431 -0.08558204
-0.14058532 -0.13160335 -0.11570435 -0.028398866 0.034316394 0.0524579 -0.05380631 0.036428716
0.030131651 -0.11587549 -0.054314286 0.008601569 0.3753907 -0.121653676 -0.678479 0.08161963
-0.2803812 -0.18747182 -0.41706407 -0.21881448 -0.09700823 -0.09379337 -0.06347465 -0.014415737
-0.09814863 -0.017605776 0.039928813 -0.060238846 -0.0014794469 0.016876284 -0.29757363 -0.1658134
-0.051251333 -0.17558014 -0.07681581 0.06874315 -0.14949568 0.006260578 0.10309158 0.034482803
-0.0055014146 0.077579916 0.0073125414 0.06660585 0.080861464 -0.0034111612 -0.04456624 0.04062842
-0.10986621 -0.08837325 -0.08151746 -0.104247525 -0.08487836 -0.093216695 -0.133394 -0.11125827
-0.10827294 -0.08296315 -0.027557591 -0.06862067 -0.09717911 -0.051606096 -0.048274584 -0.1643798
-0.081435435 -0.015169919 -0.07171936 0.0037151382 0.0078073726 -0.06807013 -0.00035794397 -0.019375362
-0.12227953 -0.069404356 -0.013643064 -0.029256709 -0.02306932 0.02633732 -0.08757569 0.025039352
0.011151488 -0.08312607 -0.045770787 -0.05051842 -0.11726962 -0.08739244 -0.0709713 -0.12583587
-0.09049613 -0.088870645 -0.13711546 -0.13168006 -0.12218411 -0.0632953 -0.13721766 -0.15416439
-0.06312629 -0.1045471 -0.15363675 -0.27556646 -0.25229886 -0.41559866 -0.083888024 -0.025708985
-0.064018406 -0.07979382 -0.018550672 -0.10958527 -0.16593882 -0.12979479 -0.11557364 0.1762033
-0.09551485 -0.28959313 -0.0041435617 -0.09919955 -0.22534102 -0.16170782 -0.28311634 -0.269295
-0.04687558 0.056255832 0.017125487 -0.06730961 0.032048613 0.062268093 -0.14825903 -0.034316927
0.11291612 -0.115483634 -0.10061865 -0.07595233 -0.104735516 -0.09555568 -0.07872083 -0.13943365
-0.1021586 -0.096876934 0.27967918 0.16626865 -0.32794455 0.15148762 -0.16243494 -0.25973123
-0.32981983 -0.37982723 -0.11954569 -0.05422703 -0.0336316 -0.032357585 -0.04081681 0.011391249
0.023219567 -0.05213372 0.01592416 0.027912414 -0.2913957 -0.19003457 -0.15023275 -0.1949912
-0.13523838 0.0067003835 -0.19913754 0.00019746952 0.0890948 0.06832321 0.022062749 -0.1813736
0.07009386 -0.025160998 -0.11316822 0.0818872 0.012672984 -0.02910052 -0.1256252 -0.116248816
-0.10111329 -0.12717211 -0.10501299 -0.11074373 -0.12806158 -0.15531671 -0.16654348 0.014262057
0.07100301 0.001156067 -0.02986779 0.060563155 0.058405876 -0.13048154 -0.01691269 0.07942682
0.02575271 0.09149851 0.14725198 -0.018832676 0.05659459 0.1312266 -0.096061416 -0.016287576
0.21270561 0.008483039 0.07649822 0.04388508 -0.03140887 0.040951185 0.0248176 -0.12882246
-0.05469224 0.061337546 -0.13089958 -0.08728244 -0.013148379 -0.069881976 -0.0004991855 0.07761142
-0.03802472 0.020205252 0.108263135 0.011704646 0.09092031 0.09683986 -0.03722992 0.04769091
0.12298149 -0.13410546 0.0010606901 0.15554461 -0.12598354 -0.08615323 -0.066832796 -0.11196159

bn.weight f4 [64]
00000000: b536 053f b13e dd3e 0012 f93e e356 ec3e
00000010: aac6 f13e ab5c 553e be61 da3e 7d6e 993e
00000020: e060 db3e 88d3 d03e 8624 c73e 1dd7 f93e
00000030: df09 e53e 26ef f03e d917 113f a608 6b3e
00000040: 62c9 153e 755e e23e b1d3 dd3e 3fb0 ea3e
00000050: 2e9a 093f f080 233f cd07 793e 22ac c63e
00000060: 890b 043f f230 003f d072 c43e 4d91 a03e
00000070: 4ae3 0d3f d303 3c3f 15da f33e 0501 e23e
00000080: 3579 be3e dae8 9c3e 286d bb3e fa9f d03e
00000090: 01a0 ed3e 86a1 023f 46b3 ba3e 16c1 9e3e
000000a0: fec7 c13e 1f6f d83e fe0d ae3e ab3c a13e
000000b0: 666b e93e 552e da3e dbd3 e63e c575 c53e
000000c0: 9dea dd3e d187 c33e 5fc7 d53e 6e5a ec3e
000000d0: e962 ed3e 61c6 d03e 1e95 dc3e b99b ae3e
000000e0: 5d27 e53e 612e 023f 8954 ec3e 13be e93e
000000f0: 00ca 0c3f 4730 0e3f 059a c33e 44e7 fb3e
0.520366 0.43211892 0.48646545 0.4616004 0.4722188 0.20836131 0.42652696 0.29967108
0.42847347 0.40786386 0.38895053 0.4879693 0.44734094 0.47057456 0.56677014 0.22952518
0.14627603 0.4421269 0.4332557 0.4583759 0.53750885 0.6386862 0.24319382 0.38803202
0.515801 0.50074685 0.38368845 0.31360856 0.5542494 0.73443335 0.4762732 0.44141403
0.3720185 0.30646402 0.36606717 0.40747052 0.46411136 0.51027715 0.364649 0.31006688
0.37847894 0.4227228 0.3399505 0.31491598 0.4558975 0.42613474 0.45083508 0.38566414
0.43343058 0.38189557 0.4175367 0.46162742 0.46364525 0.4077635 0.43082517 0.34103182
0.44756594 0.5085202 0.46158245 0.45652828 0.5499573 0.55542415 0.38203445 0.4919988

bn.bias f4 [64]
00000000: e6ce a7bd 6eac 433d 1a29 803e 5f21 9a3d
00000010: 850d 103e 001f 33bf 7f04 fa3d 89c8 90bd
00000020: 77da 533c 2f85 a03c 9ae7 273d d682 ca3d
00000030: 2982 2f3e 09e0 a53d 0af8 0c3e 53e0 9fbe
00000040: 92a9 50bf f0fa 053e 0f24 a43d 0510 b63d
00000050: 4e65 33bd c34e 563e 5172 97be f31d 79ba
00000060: 20a5 aebd ac89 f13d a46c 03bd db7d 7b3b
00000070: 67d4 a33e 5f41 00bc ee7a be3d 90cb a93d
00000080: dcd1 6fbc 8d5a 29bd 34b1 4dbd b0a8 06bc
00000090: 903d d73c f60a a2bd fe33 59bd 1c7a d1bc
000000a0: 2399 bbbd c0f3 d83d fba2 8bbd 1531 c9bd
000000b0: d5ae 443e 5110 663d 4840 ae3d 2f11 833d
000000c0: b25c ef3d 21c4 22bd a46e 203d edd2 0d3e
000000d0: bcb2 bb3d 9019 f23d 0026 9e3d 605f 0dbd
000000e0: c2d0 973d e0f7 28bd eb3f a53d 0aa2 bbbd
000000f0: 4468 b23d 7706 89bd 568c b1bd 9818 70bc
-0.081937596 0.047771864 0.25031358 0.07525896 0.14067657 -0.6996918 0.12207889 -0.07069499
0.012930504 0.019594757 0.040992357 0.09888236 0.17139496 0.08099372 0.13766494 -0.31225833
-0.81508744 0.13084006 0.0801469 0.08889774 -0.043797784 0.20928483 -0.29579404 -0.0009503059
-0.08527589 0.11793837 -0.03208603 0.0038374576 0.31997988 -0.007828086 0.09300791 0.082907796
-0.014637437 -0.04134612 -0.050217822 -0.008218929 0.026274472 -0.07912247 -0.0530281 -0.025570922
-0.09160068 0.105933666 -0.068181954 -0.09823815 0.19207318 0.056167904 0.085083544 0.06399762
0.11687602 -0.039737824 0.039168015 0.13849993 0.0916495 0.11821282 0.07722092 -0.034514785
0.07412864 -0.041252017 0.08068832 -0.09161766 0.08711293 -0.06690686 -0.08669345 -0.014654301

bn.running_mean f4 [64]
00000000: 4c44 2740 109c a840 c702 01c0 8283 1641
00000010: 0906 c7bf 80e3 a5c2 c5c0 4341 9aba 8dc0
00000020: f3da 3740 518d 2340 ac02 e541 331f 9a40
00000030: dbe6 0841 8e2f 4141 ba31 c4bf b209 5c41
00000040: 94fc 2cc3 267d 4a41 cf07 4841 2443 4240
00000050: dcda e140 cad7 10bf 4cd7 b5c0 9fdd f8bf
00000060: 3fd2 6040 73c3 f040 ec41 b641 74ad 7941
00000070: d03e 7341 9edb 4240 4c8b 3340 c83c 0841
00000080: 00c1 4740 3666 3ebe 5ac3 7d41 7631 4840
00000090: 8c21 e8c0 7086 1e40 f0f5 0542 af2b 0fc0
000000a0: 1740 4ac1 0b44 4741 6e43 1642 4e35 3441
000000b0: b772 2941 5abe 4641 c5d9 d340 3aa8 9641
000000c0: 3e03 2041 0307 b541 87e6 9fc0 6e90 2141
000000d0: d2bb 9841 d24d 8dc0 6b41 0841 15ad 0442
000000e0: bb2c bc40 e2b6 8d40 8982 f740 d235 803e
000000f0: fc8f 1d41 36e7 953f 29f9 8540 4c68 5b40
2.6135435 5.2690506 -2.0157945 9.407106 -1.5548717 -82.944336 12.234563 -4.4290285
2.8727386 2.5555003 28.626305 4.8163085 8.556361 12.07411 -1.5327675 13.752367
-172.98663 12.655554 12.501906 3.035348 7.057966 -0.5657927 -5.6825314 -1.9442633
3.5128324 7.5238585 22.782188 15.604847 15.202835 3.0446544 2.805377 8.514839
3.1211548 -0.18593678 15.860193 3.1280189 -7.254095 2.4769554 33.490173 -2.2370412
-12.640647 12.454112 37.56585 11.263014 10.590507 12.421473 6.620333 18.832142
10.000792 22.628424 -4.9968905 10.097761 19.09171 -4.4157495 8.515971 33.169025
5.8804603 4.4285746 7.7346845 0.25041062 9.847652 1.1711185 4.186665 3.4282408

bn.running_var f4 [64]
00000000: 8883 8642 1f3c d043 4ccc 9642 d406 9d43
00000010: ccc6 6242 f338 2d44 dc4a 1743 d0be 0643
00000020: 61c0 e942 b6ee 9742 44fc fc43 229f 8c43
00000030: 0592 0843 39c9 e843 3251 c542 a216 fa42
00000040: 52cf 8744 36df 1343 61dd 7243 c33f 9243
00000050: 974c 8942 c86a 4842 45b9 3243 36d3 9642
00000060: 2500 8742 92f5 7642 53df da43 6a55 8743
00000070: 5d76 ab42 85b1 9c41 4486 7e43 ce12 6543
00000080: c70c 9f42 2581 a842 f499 bf43 18f6 9142
00000090: c5fb d342 fb35 8e42 a366 0644 1cfa ac42
000000a0: e853 8743 0723 0343 a459 f743 10e9 9543
000000b0: 572b 0043 83be 8343 3487 6e43 dd26 5443
000000c0: a9ff 0d43 cc30 cb43 7bd4 4843 3854 bf42
000000d0: fe35 e543 4880 1943 19cf 5a43 93ee 0244
000000e0: fbbe 8243 73d3 9442 9ad8 8543 26b0 6f42
000000f0: 294a a242 2a3c 4042 3c60 a242 da40 2d43
67.2569 416.4697 75.39902 314.05334 56.694138 692.88983 151.29242 134.74536
116.87574 75.96623 505.97083 281.24323 136.57039 465.57205 98.658585 125.044205
1086.4788 147.87192 242.86476 292.49814 68.64959 50.10428 178.72371 75.41252
67.50028 61.739815 437.74472 270.6673 85.73118 19.58668 254.52448 229.07346
79.524956 84.252235 383.20276 72.98065 105.99174 71.10543 537.6037 86.488495
270.65552 131.13683 494.70032 299.8208 128.1693 263.48837 238.52814 212.15181
141.99867 406.38123 200.83 95.66449 458.4218 153.5011 218.80898 523.7277
261.49203 74.41299 267.6922 59.92202 81.144844 48.058754 81.18796 173.25333
