exp_52_ep_106/head_conv2.pt (torch, 889007 bytes, 5 tensors)

conv.weight f4 [128, 192, 3, 3]
00000000: c574 9ebe 970d 9fbe d6dd 91be ffa6 91be
00000010: 2c6b 91be b6f6 82be acb2 b5be 1f3a a4be
00000020: f965 91be 072a 1bbe 80f6 f8bd 0765 4cbd
00000030: abff 94bd a001 92bd 6360 84bd 14a7 bebd
00000040: 9c86 f9bd bc9c 12be 2c84 9abe b47c 91be
00000050: c548 81be 3e2e b9bd 5576 a6bd b319 52bd
00000060: 8d7d db3c d959 343d 5522 983d d4fd 34be
00000070: 6e2e 0abe d7d0 69bd 65f2 c7bd c081 c9bd
00000080: c955 8bbd df63 e7bd a49e 19be 2c7e 29be
00000090: fc3f c0bc 1f8b 3ebd d3f8 bebd 67ca 2abd
000000a0: 4a7c 91bd 7003 2bbe fe49 13be 6d1d 24be
000000b0: ad92 82be 4f2a 3fbe d418 58be 5556 4fbe
000000c0: fb98 60be e9f0 8abe 20da 74be 1f76 83be
000000d0: b504 9bbe 819b 83be b3d2 213d b56f b73d
000000e0: f5cc 0e3e ad02 28bd 1740 81bd 7a91 89bd
000000f0: 7753 9ebd 6ec0 13be 1532 32be f0da 013b
00000100: f950 003c c80b 8d3c a8a3 9c3e a8e3 9a3e
00000110: 0e48 a13e 08b1 5c3e 2f5c 643e 1bef 6e3e
00000120: c169 f9bd c1fb f8bd 4633 93bd 3d39 0dbe
00000130: dd5c a7bd 2d91 cf3a f5eb 44be c04d babd
00000140: ae0b 1c3c f099 14bd da3e 7bbd 826a f3bd
00000150: 18ec 29bd 27e7 19bd ee45 52be 8069 10be
00000160: a806 37be b2c5 a7be 800d 69be 46cf 7ebe
00000170: e7b3 4abe 354b 83be 17ba 94be 1f2c 77be
00000180: 0be0 96be 316e 9dbe 7f29 7ebe 899b a5be
00000190: 49ad b7be 6387 b1be b746 ebbc 049b d3bc
000001a0: 0ce5 23bd 76c5 ce3c bc12 ae3c 74ef a93c
000001b0: 9b35 8ebd 1af4 8fbc 8a0e 8c3c 1363 ae3d
000001c0: 47b2 e43d 2240 183e 3582 e23c 758f 613d
000001d0: addd bb3d d0a6 a1bd b122 42bd d0d9 51bc
000001e0: ff10 8f3d 15a8 723d fa6d 2a3d 2c17 41bc
000001f0: 5d1e 3abd 6f39 c9bd c7cd 73be 5196 8cbe
00000200: d316 84be 0d20 85be 62aa 98be 040b 92be
00000210: 6697 81be 603e a1be 1d1e 89be 059b f6bd
00000220: 904a 23bd 3889 a93c ca8b a2bc ac41 e13c
00000230: 7d5f 433d f72f bc3c 383d 4b3d 4f05 663d
00000240: 6cae 8dbd 2e86 3abd cdac 5c3c 4dd9 a3bd
00000250: 502b d5bd bb24 b7bd 58a0 c6bd 7326 2dbe
00000260: 1387 64be 4328 603c 4658 95bc 105d efbc
00000270: 85e8 1f3d 2ddc dc3c cd51 293c 7f68 c83d
00000280: 246b b33d 2191 bb3d a23c 6a3d ab2e e03d
00000290: f178 383e 241d 3c3c 9bf3 a23d 6b95 033e
000002a0: eb19 863d 89af b23d 76d9 e53d 77c4 1bbc
000002b0: 3ecf 363b d9fe c63c 659c 273d ca14 8f3d
000002c0: e54f 1a3e d592 003e fd82 2f3e f104 563e
000002d0: 5864 14be b0f8 dfbd b7a7 89bd 0cfb d33c
000002e0: a316 533d 3ee7 8e3d 300c 17bd 29ea d3bc
000002f0: cf49 91bc e2b5 50be 2f8b 44be 738c 08be
00000300: afd0 70be c9b2 50be 4fff bbbd 69eb 92be
00000310: 7c2c bbbe d07d a8be 3f00 c0bd 5ef3 febb
00000320: d138 893d c356 f3bd d966 e0bd 71ec 96bd
00000330: 7d62 ccbd 9b06 0fbe ad35 1fbe d1a5 c4bd
00000340: bcf5 c5bd e723 e4bd 9eed 0ebe 257d 09be
00000350: 2948 2bbe bde7 22be 2d9a 37be 8586 6bbe
00000360: af2b 063d fbbf 013d 65cd 683d 84b3 a53e
00000370: cddf aa3e baec ae3e 6dce 583e 0a12 5d3e
00000380: 4c9a 643e eaf1 abbe ad01 b9be 0807 aabe
00000390: bf8b 70be 33f7 92be 2e90 90be 71d1 7fbe
000003a0: 333a 93be e7b0 6fbe 21ce 6e3d 058e d2bb
000003b0: a102 f7bc 7b3e 3fbc 1be1 29bd 4cfc f0bc
000003c0: 8643 133d ffcf 703d d97c 003e a2a4 133d
000003d0: 7153 733d 5ebe 963d 7a33 513e bdbb 463e
000003e0: b574 223e fff9 ff3d 1faf cb3d 9507 5d3d
000003f0: 6c2d babd bb78 0bbe 85bc 0bbe 0dcf 3fbe
-0.30948463 -0.31065056 -0.2848956 -0.2844772 -0.28402078 -0.2557885 -0.35487878 -0.32075593
-0.2839811 -0.15152751 -0.12156391 -0.049901035 -0.07275327 -0.07129216 -0.06463697 -0.093092114
-0.12183878 -0.14317602 -0.30178964 -0.28415453 -0.2525083 -0.09042023 -0.08128039 -0.05129404
0.026793266 0.044030998 0.07428423 -0.17674953 -0.13494274 -0.05708393 -0.0976303 -0.09839201
-0.068034716 -0.11298346 -0.15001923 -0.16552037 -0.02346801 -0.046519395 -0.09324803 -0.041696932
-0.071037844 -0.1670053 -0.14383695 -0.1602685 -0.2550253 -0.18668483 -0.21103221 -0.20247777
-0.21933357 -0.27136925 -0.23911333 -0.25676057 -0.3027703 -0.25704578 0.03950758 0.08956853
0.13945372 -0.041018177 -0.06311052 -0.067172006 -0.077307634 -0.14428875 -0.17401917 0.0019814335
0.007831805 0.017217532 0.3059361 0.30251813 0.31500286 0.21551907 0.2230079 0.23333399
-0.12178374 -0.12157393 -0.07187514 -0.13791366 -0.08172009 0.0015836112 -0.19230635 -0.09096861
0.009524269 -0.03627962 -0.061339237 -0.11885549 -0.041484922 -0.03757396 -0.20534489 -0.14102745
-0.17873633 -0.32768017 -0.22759056 -0.24883756 -0.1979519 -0.25643316 -0.29048225 -0.24137925
-0.29467806 -0.30748132 -0.24820517 -0.32345226 -0.35874394 -0.34673604 -0.028720243 -0.025830753
-0.040013358 0.025240641 0.021249168 0.020744063 -0.06943818 -0.017572451 0.017096777 0.08514991
0.11166816 0.14868215 0.027649978 0.055068452 0.09173141 -0.07893145 -0.047396366 -0.012808278
0.069856636 0.059242327 0.041608788 -0.01178531 -0.045439113 -0.09825408 -0.23808967 -0.27458432
-0.25798663 -0.26001015 -0.29817492 -0.2852403 -0.2531082 -0.314929 -0.26780787 -0.120412864
-0.03986603 0.020695314 -0.019842047 0.027497135 0.047698487 0.02297209 0.04961893 0.056157406
-0.06918034 -0.04553812 0.013468933 -0.08000431 -0.10408652 -0.08942553 -0.09698552 -0.16909198
-0.22317152 0.013681474 -0.018230569 -0.02921918 0.039040107 0.026960457 0.010334444 0.09785556
0.0876067 0.091585405 0.05718673 0.10946401 0.18014885 0.011481557 0.0795662 0.12849967
0.06547912 0.08724887 0.11223118 -0.00950729 0.0027894522 0.024291443 0.040920634 0.06986387
0.1506954 0.12556012 0.17139812 0.20900322 -0.14491403 -0.10936105 -0.06721442 0.025876544
0.05153526 0.069777 -0.036876857 -0.025868492 -0.01773539 -0.20381883 -0.1919372 -0.13334827
-0.23517106 -0.20380701 -0.091795556 -0.2869523 -0.36557376 -0.32908487 -0.09375047 -0.0077804765
0.0670029 -0.11881783 -0.10957117 -0.07369316 -0.09979723 -0.13967364 -0.1554782 -0.096019395
-0.09666011 -0.1113966 -0.13957831 -0.13426645 -0.16726746 -0.15908714 -0.17929907 -0.23000534
0.032756504 0.031677227 0.056836504 0.32363522 0.3337387 0.34164983 0.21172495 0.21588913
0.22324485 -0.33583003 -0.3613409 -0.3320849 -0.23490809 -0.28704223 -0.28235 -0.2498224
-0.2875534 -0.23407327 0.05830205 -0.0064256215 -0.03015262 -0.011672611 -0.041474443 -0.02941718
0.035953067 0.05879211 0.12547626 0.036045678 0.059405748 0.073605284 0.20429793 0.19407554
0.15864833 0.12498855 0.09945511 0.05396231 -0.09090695 -0.13620274 -0.13646133 -0.18731327

bn.weight f4 [128]
00000000: ff5a b23d 7ac8 3e3e 9d26 aa3e ae4e 203e
00000010: 0a19 213f 53e9 173f 71a2 5a3e 7a22 44bb
00000020: 8694 8b3e 6bfa 743e 488a 343e f532 2c3e
00000030: 171b 823e 4e99 2a3f 3a76 9b3e 98a8 2a3f
00000040: 582c 3d3e 527b 8b3e 17b7 0f3f 1e5a 163f
00000050: bbe1 ac3e 1451 ad3e 85e2 7d3e 0c33 243e
00000060: f075 f03d e777 213e 7b40 9c3d d2a4 463e
00000070: 9e00 6c3e 978c 6f3e ebf6 c13e d79b bd3e
00000080: 92c3 f83d 855b 4a3f 689e a13e a0ba b93e
00000090: c3a4 173f f5d0 b33e 7214 1c3f b15c a33e
000000a0: 7710 343e 7fdd ae3e 327f 5f3e af79 b13e
000000b0: 065e 273e cc66 083f eb77 c13d a2f7 a13e
000000c0: 81d5 0e3e e29c 183e 11eb 5c3e 62b8 9e3e
000000d0: 7c7a 8e3e 22ce 113f 306c dc3d 8f7f 5f3e
000000e0: 243b ad3e 4f3d 0a3f cc58 563b 7cc6 503e
000000f0: 9abf 413e 4ce6 883e 9f90 133f 10fe f23e
00000100: 9e80 443e 2bca bd3e 0237 c03e 2d4c 213e
00000110: 4519 663e af06 dd3e 94e2 ab3e c165 bf3e
00000120: 8efd 1b3f b8d7 2f3e 69d0 9d3e 41a6 243e
00000130: ea99 2d3f 656a 823e 50ed b23e 5573 9d3e
00000140: 4223 d73e 20da 2c3e 1845 113f 9a33 943e
00000150: 7281 a03e 73ee e23d 2d7d 2d3e 1cbd b23e
00000160: f840 863f d69b 1f3f b64f 343e d969 883e
00000170: 1e59 113f 1696 1b3e a30a a63e ff34 1c3e
00000180: efd3 113f e01e 003f fba5 ac3e 9840 143e
00000190: 3284 d23e d837 233f 59f5 ad3e e539 943e
000001a0: ce24 253e ca4d d23e 8117 b83e f571 1a3f
000001b0: 91df 023f bb1c 1e3e 57a1 903e e3b5 10bb
000001c0: d547 133f 245e 903e bf66 113e 901a 8a3e
000001d0: 5ede 093f 1f78 8d3e b287 963e a320 bd3e
000001e0: ca09 0c3e fd91 923e 9d41 0a3f 3895 073f
000001f0: 6140 463e ad73 2e3f 90a6 f43d 7e70 393e
0.087087624 0.18631163 0.33232585 0.15655014 0.6292883 0.593404 0.21351029 -0.0029927776
0.27261752 0.23923652 0.17630875 0.16816314 0.25411293 0.66640174 0.30363637 0.66663504
0.18473947 0.27242523 0.5613875 0.5873126 0.3376597 0.3385092 0.24793442 0.16035098
0.11741245 0.15768395 0.07629486 0.19398811 0.2304711 0.23393475 0.37883696 0.3703296
0.12146677 0.790459 0.31566167 0.36275196 0.5923578 0.3512036 0.609687 0.31906655
0.17584406 0.34153363 0.21825865 0.3466315 0.16344461 0.53281856 0.09446701 0.3163424
0.13948633 0.14903596 0.21574046 0.31000048 0.27827823 0.5695516 0.10762823 0.21826003
0.33834183 0.539998 0.0032706736 0.20388216 0.18920746 0.26738203 0.5764255 0.4745946
0.19189689 0.37068304 0.37541968 0.15751715 0.22470577 0.43169162 0.33571303 0.3738232
0.6093377 0.17172134 0.30823067 0.16079046 0.6781298 0.25471798 0.3494668 0.30752054
0.42019087 0.16880083 0.56746054 0.2894562 0.3134876 0.11080637 0.16942282 0.34909904
1.0488577 0.6234716 0.17608532 0.26643255 0.5677661 0.15193972 0.3242999 0.15254591
0.5696401 0.5004711 0.33720383 0.14477766 0.41116482 0.63757086 0.33976248 0.2895042
0.16127321 0.41074973 0.35955432 0.60330135 0.51122385 0.15440647 0.28248093 -0.002208107
0.5753148 0.28196824 0.14199351 0.2697339 0.5385493 0.27630708 0.29400402 0.36938962
0.13675609 0.28627005 0.5400637 0.52962065 0.19360496 0.6814526 0.11945832 0.18109319

bn.bias f4 [128]
00000000: 4910 b8bd 53b6 48be 8456 e33d dbb8 47bf
00000010: 8a78 b4be 90cd 74bd d992 19bf db83 a3bf
00000020: 613b c03d 1c53 b1be 178c 02bf 8f85 b2be
00000030: c76a 8c3d 3245 a9be 4483 47be 3574 13bf
00000040: 1447 c8be 347b 983d 21df 93be c3a9 15be
00000050: f2d8 e4be cb93 55be a532 0ebc 0faf 01bf
00000060: 60c9 6ebf 39ab 3fbf d097 5cbf 90ce 20bf
00000070: f2b5 c73d 9817 05bf 5eca a6be 5299 d4be
00000080: 2a9b 5fbf 7386 89be 4faf 783d e58a dfbd
00000090: 865e 77be 9784 f73d 3459 813d 1382 493e
000000a0: 3886 3c3d 78c6 1a3e 716d 99be 8dc1 75be
000000b0: 6853 10bf f42a 653e 8710 fbbe 74c9 43bd
000000c0: 736d 66bd f1fd 32bf 9ff6 773c 508a 0d3e
000000d0: d96c cfbe 7a26 8ebe a797 5cbf e447 0abf
000000e0: a3b2 e4bd 1737 3fbc 2a51 9fbf a119 fbbd
000000f0: 6e76 0bbf f1a1 f43d 46c1 b6be 48d9 14be
00000100: d4a4 57bf 9058 b2be d2e7 a0bd 975b edbe
00000110: 4142 ad3d 1297 22bf c716 f83d e09c 0dbe
00000120: be62 5cbe 6c82 f7be 6ba8 4f3e 35ed e0be
00000130: b562 79be 411a 6cbe 0402 993c 87bd 243d
00000140: b471 15bd d197 06bf 82cd 8fbe 11a7 b83d
00000150: 30be 003d f9fe 04bf 9012 06bf 3703 0f3e
00000160: 8173 78be 5935 7cbe 8537 aabe 2874 fdbe
00000170: 34bd 0abf 0452 37bf 37df f23d 80fa 5abf
00000180: 36f6 91be 2485 34be 666a 0d3e ccf0 06bf
00000190: bc28 7abe 243e eebe c517 37bd e966 0c3e
000001a0: 8a04 47bf 6e46 f2bd fab8 9bbe c1b9 70bd
000001b0: b900 8cbe d40e 58bf 47d4 91bd f68f a3bf
000001c0: 11e9 aabe 661a 083e f3ab 50bf 7c86 df3d
000001d0: b202 35be 5058 d43d 1f34 ff3d 74af 233e
000001e0: 85f2 0dbd efdb 0d3e 64dd a8be 7e69 763c
000001f0: da0f 1dbf f2cf 11bf 954d 12bf 04a8 5bbf
-0.08987481 -0.19600801 0.11100486 -0.7801644 -0.35248214 -0.059766352 -0.59989697 -1.2774614
0.09386326 -0.3463372 -0.5099501 -0.34867522 0.06856304 -0.33060604 -0.19483668 -0.5759919
-0.39116728 0.07445374 -0.2888117 -0.1461554 -0.44696766 -0.2085716 -0.008679067 -0.50657743
-0.93276024 -0.7487064 -0.8616915 -0.6281519 0.097515 -0.51989126 -0.3257627 -0.41523224
-0.87346137 -0.2686039 0.060714062 -0.10915164 -0.24157152 0.120858364 0.06315842 0.19678526
0.04602644 0.15114772 -0.2996631 -0.23999615 -0.5637727 0.22379667 -0.49036047 -0.047799543
-0.056256723 -0.69918734 0.015134483 0.13822293 -0.40512732 -0.2776373 -0.86168903 -0.54015946
-0.11166885 -0.011670849 -1.2446644 -0.12260748 -0.54477584 0.1194495 -0.3569433 -0.14536011
-0.8423588 -0.34833193 -0.07856716 -0.4635894 0.084599026 -0.63511765 0.121137194 -0.13829374
-0.21522042 -0.48341691 0.2027909 -0.43930975 -0.2435406 -0.2305689 0.018677719 0.04021981
-0.03648539 -0.52575403 -0.28086478 0.090162404 0.031431377 -0.5195156 -0.52372074 0.1396607
-0.24262811 -0.24629726 -0.33245483 -0.49502683 -0.5419495 -0.7160952 0.11858981 -0.8553848
-0.28508157 -0.17628914 0.13810119 -0.52711177 -0.24429601 -0.46531785 -0.044700403 0.13711132
-0.777413 -0.1182984 -0.30414563 -0.0587709 -0.273443 -0.84397626 -0.07120567 -1.2778308
-0.3338094 0.1329132 -0.81512374 0.10914323 -0.1767681 0.10368407 0.12461113 0.15984899
-0.034655113 0.1385343 -0.32981408 0.0150398 -0.6135231 -0.56957924 -0.5714963 -0.85803246

bn.running_mean f4 [128]
00000000: 9c22 7d41 d956 99c2 1158 e0c1 4b28 9cc2
00000010: 6067 b63f fe8a ad40 0d9a aac2 cf2c dd40
00000020: 7cde 08c2 d636 52c2 6b1b e9c2 ab06 42c2
00000030: 9bb8 25c2 4f79 08c0 06a2 26c2 89a0 96c0
00000040: 6a57 53c2 7ed2 0cc2 888e be40 f72d 5741
00000050: 0a6d 39c2 94b5 7241 c89d b6c2 7e23 a7c2
00000060: 8da0 ddc1 7867 bac2 31be 9a42 d903 8dc2
00000070: e1cb 27c2 be66 f841 6b58 99c1 3909 12c2
00000080: 583b f3c1 ac6b 9fbe 40b6 a0c1 7a93 7b41
00000090: e054 9641 8c0f f2c0 d263 5140 e817 e4c1
000000a0: 043b 0bc2 d2f0 efc1 d88f 88c2 2dc3 6bc0
000000b0: 5a7c aac2 056e e640 58bc 01c2 37a4 e1c1
000000c0: 697c 43c2 e57d d5c2 6a2d 55c2 1a26 edc1
000000d0: 1ba3 7ac2 9881 7441 61dc 3540 19e1 8cc2
000000e0: 5691 9fc0 6fbb 9a41 7350 bc42 c303 e1c2
000000f0: 12c0 59c1 935a 17c2 e3e2 9bbf f274 26c0
00000100: 8db6 cdc2 b167 06c2 681a 9f41 4d4b 9cc2
00000110: 220f fac1 1f09 883e 6c77 d2c1 c737 2340
00000120: ddf0 b641 f2ec 7dc2 40c3 b5c1 a936 87c2
00000130: 0309 6840 ae21 ccc1 d7bc 90c1 e67e 3cc2
00000140: eb46 0e40 88c1 3ac2 ef57 8a41 5617 f5c1
00000150: 1a98 1cc2 d86f 0341 6160 b7c2 2e1b e8c1
00000160: e7b9 d5bd 2e73 5f40 7589 8fc2 0096 17c2
00000170: 1053 0cc1 42b3 9ac2 5b14 04c2 e15b 3bc2
00000180: 987d 10c1 9931 e240 e102 c2c1 5ef8 8cc2
00000190: e48a dfc0 c918 c7bf 1551 2bc1 95b5 0ec2
000001a0: c49e 84c2 fe13 7ec0 927f f7bf 6a89 c641
000001b0: bade 40c1 cd8d 8ec2 1f3c 02c2 9897 9b41
000001c0: 553d 7941 6377 0cc2 3fd5 74c2 067e 15c2
000001d0: a2e5 8140 2026 21c2 b950 f5c1 42fa 05c2
000001e0: 26d3 3f42 860f cdc1 0151 3d41 0ebe 8241
000001f0: db84 76c2 48ee b0c0 10cc 99c2 2cce dfc2
15.82095 -76.669624 -28.043001 -78.0787 1.4250298 5.423217 -85.30088 6.91172
-34.21727 -52.55355 -116.55355 -48.50651 -41.43028 -2.132404 -41.658226 -4.7070966
-52.835365 -35.20556 5.954899 13.448722 -46.356483 15.169331 -91.30817 -83.56932
-27.703394 -93.20209 77.37147 -70.507515 -41.9491 31.050167 -19.168173 -36.509007
-30.403976 -0.31136835 -20.08899 15.723505 18.791443 -7.564398 3.2717175 -28.511673
-34.807632 -29.992588 -68.280945 -3.6837876 -85.242874 7.20093 -32.43393 -28.205183
-48.871494 -106.74589 -53.29435 -29.643604 -62.659283 15.281639 2.8415759 -70.439644
-4.986491 19.34152 94.15713 -112.50735 -13.609392 -37.83845 -1.2178615 -2.6008878
-102.856544 -33.60126 19.887894 -78.14707 -31.25739 0.2656946 -26.308311 2.5502794
22.867609 -63.48139 -22.720337 -67.60676 3.62555 -25.516445 -18.092207 -47.123924
2.2230785 -46.688995 17.292936 -30.636395 -39.148537 8.214806 -91.68824 -29.013271
-0.10435849 3.491405 -71.76847 -37.896484 -8.770279 -77.35011 -33.01988 -46.839725
-9.030663 7.0685544 -24.251406 -70.48509 -6.9857044 -1.5554439 -10.707295 -35.677326
-66.31009 -3.9699702 -1.9335806 24.817097 -12.054377 -71.276955 -32.558712 19.44902
15.577474 -35.11659 -61.20825 -37.37307 4.0592813 -40.28723 -30.664415 -33.494392
47.9562 -25.63258 11.832276 16.3428 -61.62974 -5.529087 -76.89856 -111.90268

bn.running_var f4 [128]
00000000: fe51 6342 052c fd43 bc99 4443 f616 8a44
00000010: 53e8 7841 af5c 8b42 74c6 9a43 169c 8041
00000020: 80ca 1b43 0f83 4d43 9974 5144 6eaa aa43
00000030: 72ea 1243 2cfb 7441 05c1 fa42 65fb 5d41
00000040: 2b60 9b43 9933 1a43 5487 9e41 1c15 5942
00000050: 8f51 dd42 e296 ae42 bd27 4843 530e 1844
00000060: 0e23 9743 e2bf 6544 d042 f343 ca1c da43
00000070: 6895 fe42 565f ac42 5c74 b841 11f0 3642
00000080: d266 1043 a57e 0a41 dd9c f542 d6f0 b142
00000090: a8b4 3242 e2bd 6543 ca49 8842 a012 0443
000000a0: 5a0b c742 d2b4 2b43 6648 8343 6f87 be42
000000b0: bdd2 4644 86cf d142 7127 2343 202f 0b43
000000c0: aded fd42 bbe7 8b44 c278 1343 661b 2043
000000d0: 64a0 4b43 2331 1a42 875f a843 feb4 0943
000000e0: 72c8 f442 0f82 9942 eba3 5044 2aad 9e43
000000f0: 9b78 6e43 cc4d 0e43 ea75 8541 4ea3 9642
00000100: f1a3 8043 d0a6 7d42 1396 8942 3844 e643
00000110: 5ff5 f342 0eb4 5741 8e9a 4443 546c 8542
00000120: eea4 4142 ded1 dc43 53a8 0e43 ba27 d343
00000130: 4d32 5841 41b8 5542 00e3 5a43 2dd2 5743
00000140: 1a78 a642 79b5 9043 950d 2042 8a6a 1843
00000150: faa4 0943 60c1 bd43 d16f 0444 bc00 3343
00000160: 8db3 0441 5709 8f42 f9dc a443 9a5f a242
00000170: 797f 5f41 83b7 6844 1e2c 2d43 9461 fa43
00000180: e1f6 9742 8417 0b42 9cf1 3343 1600 1f44
00000190: 4632 d442 d367 8241 7a98 4c43 d842 1843
000001a0: c30b 1944 0257 a042 fb36 b542 5bb1 b541
000001b0: 026d f941 93a0 2744 5ce1 0d43 7a6f 3543
000001c0: f6d3 0442 99da 0743 2aaa 1d43 8349 1743
000001d0: 7723 6641 c11e 1b43 04f9 1643 9c16 4443
000001e0: f488 6f42 39d8 1043 ac75 d341 2895 f341
000001f0: c92f c043 59ab d940 5155 3344 4436 9043
56.83007 506.3439 196.60052 1104.7175 15.55672 69.68102 309.5504 16.076214
155.79102 205.51195 837.82184 341.33148 146.9158 15.311321 125.37699 13.873876
310.7513 154.20155 19.816078 54.270615 110.659294 87.29469 200.15523 608.2238
302.27386 918.99817 486.52197 436.2249 127.29181 86.1862 23.056816 45.73444
144.40164 8.655919 122.80637 88.97038 44.676422 229.74173 68.14412 132.07275
99.52217 171.70633 262.5656 95.26452 795.2928 104.90532 163.15407 139.18408
126.96421 1119.2416 147.47171 160.10703 203.62653 38.547985 336.7463 137.707
122.391495 76.75402 834.5612 317.35284 238.47112 142.3039 16.682575 75.318954
257.2808 63.412903 68.79311 460.53296 121.97924 13.481459 196.60373 66.71158
48.411064 441.6396 142.65752 422.31036 13.51228 53.429935 218.88672 215.821
83.23457 289.41776 40.013264 152.41617 137.64444 379.51074 529.74713 179.00287
8.293836 71.51824 329.72635 81.18672 13.968621 930.8674 173.17233 500.76233
75.982185 34.772964 179.94379 636.00134 106.09819 16.300695 204.59561 152.26111
612.1838 80.16994 90.60738 22.7116 31.178226 670.509 141.88031 181.43546
33.206993 135.8539 157.6647 151.28716 14.383658 155.12013 150.97272 196.08832
59.883743 144.84462 26.432457 30.44783 384.37332 6.8021665 717.33307 288.42395
