exp_52_ep_106/head_hm_out.pt (torch, 301691 bytes, 11 tensors)

0.conv.weight f4 [64, 64, 3, 3]
00000000: bf89 4c3d 6e40 8d3e 544b ac3e f252 503e
00000010: e8e7 a53e f13a db3e 5b8b a03e f1ad d83e
00000020: 6bf0 da3e 7216 963c b784 8f3c 28de 1b3d
00000030: 4d0f 303c 0f34 113d 5ae5 c23b 5faa 22bc
00000040: 32b7 1bbd e581 bebc 3787 dd3c d1ec 433e
00000050: 0e4c d93e a884 073e 3350 ac3e a482 d93e
00000060: c47d 3d3f d28e d63e 9b1a 953e 1efd 463c
00000070: 833b 3d3d 05eb eb3c dea6 7b3c 5a44 753d
00000080: b6a4 a53d 2888 49bd 964b 14bd 12f4 08bd
00000090: abf2 b33e 538b 16be b214 d43e 2c47 9f3e
000000a0: 6e59 96bd 3408 cc3e 925f 833d c0df f83d
000000b0: 49ee 8e3e 5ba7 9f3e a922 933e 0f47 953d
000000c0: 4002 1f3e 3c3d b1bd 6637 d33e dbfb 293e
000000d0: af19 05bc 6af5 ce3e cfcb 203d 91af ea3c
000000e0: 744a 5a3d 77a4 b23d 0e35 3f3c a88a b13c
000000f0: e88a 7dbc 9f87 9fbd 27ae cebd 810a 9a3e
00000100: d09f f13e c436 a43e 1c75 403d d166 be3e
00000110: 9c46 683e 97ef 923e 8e5b 8f3e a1e9 9a3e
00000120: bdf5 cfbd dd85 f3bd 1d13 203f aef7 25bc
00000130: 72fd 9f3d 6965 c73e 1c39 ed3e f6db b33e
00000140: 210c e43e fde0 b33e fd71 da3e f842 d93e
00000150: cfa4 a03e 9be0 8d3e 0209 9c3e 5e9c b13e
00000160: b484 b63e 6066 d73e 203a 6c3c 8db4 6ebb
00000170: e75d bc3d 0c0b 1abd ec59 08bc 7ee8 713d
00000180: 0d49 ce3c 4b68 fb3b 84c1 f83b 0eea 813c
00000190: 7eb8 e13c 6e32 063d 09ca 993c 0561 8f3c
000001a0: aff8 6e3d 48e2 34bd d040 adbc be9d 8e3c
000001b0: 278e b13c 5930 ab3d ac80 483d 42b3 1a3d
000001c0: 2472 b9bb cd0c 823c 9f7c 45bc 1a38 a3bd
000001d0: a2b8 87bd 3287 ff3c 28ad 1f3c be28 d93b
000001e0: 55fb 473c b31c 603d 9885 a5bb 9e1e 4fbd
000001f0: 4cb6 1bbd cb4e 7ebd a3b4 a83d b313 10bd
00000200: 25a0 a4bd 8976 cfbd 454a 16be 6d89 dc3e
00000210: d134 163f 57d8 2fbe 939b 463e fd3e 833e
00000220: f051 703d 0368 3a3e 0b3a a43e d16f 9b3e
00000230: c1d7 283e 837f cf3d e9cc f63e 46d2 ba3e
00000240: 0b60 ec3d e1d7 793d 1090 803d 45eb 0ebd
00000250: 8dac a3be 1d1f 843e 57ff 0f3e 3450 73be
00000260: e450 923e edf6 8c3c 091a 7f3d 6223 723d
00000270: 8639 3d3d 8417 9ebc 3aed 3f3c 5246 e8bc
00000280: c42c 82bd 3e49 44bd 6f24 e03c a5b0 003d
00000290: 9175 0f3d 8530 803c cb63 1ebb f923 a03c
000002a0: d427 0cbd 27ee d63c f8be 4f3d 59b1 ac3c
000002b0: 8a59 3a3d be1b 3e3c 3b94 0b3a e8cb 853d
000002c0: 835f 783d 2649 2fbd bc41 d9bc d0b8 08bd
000002d0: 5b95 513e d6a8 913e ad79 8a3e 806f 723e
000002e0: 03c7 4b3e 10c8 643e e08c 7c3e 1a53 813e
000002f0: b817 4f3e 27b5 9d3e 9c04 e63e a3e2 013f
00000300: 4d80 9bbe c551 3ebe 31cb c3be a7ea 22be
00000310: 6498 d03e fc94 ab3e e4cb 2c3e 3b1b 343e
00000320: 95f4 ef3e 689f 2f3e 37fa 993e 166d ac3e
00000330: eeb4 673e fb7a af3e 1777 253e 32c1 d63e
00000340: 825d cd3e 3bad d23e 5a0c a13e 707b 673e
00000350: b51b 903e 60d8 bc3e f828 9c3e e282 ab3e
00000360: 454b 563e fbab 823e 0a94 883e f3c3 613e
00000370: 9fc8 793e 0c51 a03e a6fa 763e 23d9 993e
00000380: d2d1 9c3e 2e58 03bf 59b3 42be 1ba0 05be
00000390: e82e f4be 5a2e 49be 0317 803e 36ed 043f
000003a0: 2374 24be c761 913d d4d1 773c d23f 3b3c
000003b0: 472e 1b3d d116 8b3c e6ff 283d 8faf 9f3c
000003c0: 712b 05bc 8ce3 d3bc c67a f4bb 8015 a53c
000003d0: 0fec 3b3d 681c 743c 4d95 1e3d ea4a 193d
000003e0: 2a38 2ebe 1312 e5bd 0ce4 f5bd 1620 6abe
000003f0: b120 c0bc 9265 be3b ae7b 73be 50bb 4c3d
0.049936052 0.27588218 0.3365122 0.20344141 0.32403493 0.42818406 0.3135632 0.42320207
0.4276155 0.01832125 0.017519338 0.03805366 0.0107458355 0.035450038 0.005947751 -0.009928315
-0.038016506 -0.023255298 0.027042015 0.19133307 0.42440838 0.13234198 0.33654937 0.42482483
0.7402003 0.41905838 0.2912186 0.012145309 0.046199333 0.02879859 0.015359608 0.05987964
0.08088057 -0.049202114 -0.036204897 -0.03343589 0.35146078 -0.14701585 0.4142204 0.31108987
-0.07341276 0.39850008 0.06414713 0.12152052 0.27916172 0.3118237 0.2873738 0.07288944
0.15528202 -0.08654258 0.41253203 0.16599981 -0.008123799 0.4042161 0.039256867 0.02864817
0.05329366 0.087227754 0.011670364 0.021672562 -0.015475012 -0.077895395 -0.10091811 0.3008614
0.4719224 0.32073033 0.046986684 0.37187818 0.22683185 0.28698418 0.27999538 0.3025637
-0.10154293 -0.11890767 0.62529165 -0.010129852 0.07812013 0.38944557 0.46332633 0.35128754
0.44540504 0.3513259 0.4266509 0.42433906 0.3137574 0.27710423 0.30475622 0.3468961
0.3564812 0.42070293 0.014418155 -0.0036423535 0.09197598 -0.03760819 -0.00832222 0.059059612
0.025181318 0.007672345 0.0075914282 0.015858676 0.027553793 0.032762937 0.018773096 0.017502317
0.058342632 -0.04416111 -0.02114907 0.017409202 0.021674229 0.08358831 0.048950836 0.03776861
-0.0056593586 0.015875245 -0.012053638 -0.07969685 -0.06627013 0.031192396 0.0097458735 0.0066271713
0.012205918 0.05471487 -0.005051326 -0.05056631 -0.03801565 -0.06208686 0.08237579 -0.035175037
-0.08038358 -0.10130031 -0.14676769 0.43073598 0.5867434 -0.17172371 0.19395284 0.25633994
0.05867189 0.1820374 0.32075533 0.30358747 0.16488554 0.10131743 0.4820321 0.3648855
0.11541756 0.060996894 0.06277478 -0.03489234 -0.31967583 0.25804988 0.14062248 -0.23761064
0.2857734 0.017207587 0.06228069 0.059115775 0.046197437 -0.019298322 0.011714274 -0.028353844
-0.063561946 -0.04792141 0.027361123 0.03141846 0.03502423 0.015648136 -0.0024168368 0.019548403
-0.03421767 0.026236607 0.05071923 0.02108066 0.045495547 0.011603294 0.0005324517 0.06533033
0.060637962 -0.04279437 -0.026520602 -0.033379376 0.20467131 0.28449124 0.27045956 0.23675346
0.19900136 0.22341943 0.24663115 0.25258714 0.20223892 0.3080227 0.44925392 0.50736445
-0.30371323 -0.1858588 -0.3824096 -0.15909825 0.40741265 0.33512104 0.16874653 0.17588513
0.4686629 0.17150652 0.3007371 0.33676976 0.22627613 0.34273514 0.1615871 0.4194427
0.40110403 0.4114779 0.31454736 0.22605681 0.2814614 0.3688383 0.30500007 0.33498293
0.2092715 0.25521836 0.26675445 0.22047405 0.24392937 0.31311834 0.24119052 0.30048475
0.3062883 -0.51306427 -0.19013728 -0.13049357 -0.47692037 -0.19646588 0.25017557 0.51924455
-0.16059928 0.07098728 0.0151257105 0.01142879 0.03788593 0.016978653 0.04125967 0.019492893
-0.008128033 -0.025865339 -0.007460925 0.020151854 0.04587942 0.014899351 0.038716603 0.03742496
-0.17013612 -0.11185088 -0.12006387 -0.22863802 -0.023453088 0.005810448 -0.23777649 0.049983323

0.bn.weight f4 [64]
00000000: a206 673f e902 bd3e 6e56 5f3f 2b7f 8c3e
00000010: 1bd6 ae3e 7892 a53e d81f bc3e 9aa7 ae3e
00000020: 8b0b 983e 4fd7 dd3e dffe bd3e 365e a53e
00000030: c3c0 363f 7cf6 9f3e 87f2 383f e966 cb3e
00000040: 3a7e a93e d010 a83e a9c1 ba3e 8f00 e33e
00000050: a3f9 253e a19d c43e 8826 183f c764 ab3e
00000060: 3857 fd3e 71cb 0d3f abdc be3e 1faa 8f3e
00000070: a25f af3e 3c56 cf3e 70be c53e 32a8 e73e
00000080: d3a1 923e aeaa 763e c6b6 ec3e 4d4b 933e
00000090: 8da2 9b3e 9d5a 443f c859 253f e529 1c3f
000000a0: c1e0 9c3e 471a 6f3f 4fa4 023f a35f 023f
000000b0: eb81 aa3e 86e9 d93e dd59 ab3e a48e 923e
000000c0: a88e db3e 6763 a03e 0744 fb3e 1ff8 ae3e
000000d0: c630 8f3e cdd1 b13e dc99 143f 2a56 e53e
000000e0: c01f d23e 8eba 973e 8498 093f ae5f a03e
000000f0: 19ce bc3e 5bfe 1f3f 6dd2 173f 0c3d e23e
0.90244496 0.36916283 0.87241256 0.2744077 0.34147725 0.3233831 0.36743045 0.34112245
0.29696307 0.4332833 0.37108514 0.3229844 0.7138788 0.3124274 0.7224507 0.39726952
0.33104116 0.32825327 0.36475876 0.44336364 0.1620851 0.3840151 0.59433794 0.33475325
0.49480605 0.5538855 0.3727773 0.2805948 0.3425265 0.4049548 0.38621855 0.4524551
0.28639087 0.24088547 0.46233195 0.28768387 0.30397454 0.76700765 0.6459012 0.61001426
0.30640224 0.9339947 0.51031965 0.5092718 0.33302245 0.42560977 0.33466998 0.2862445
0.42882276 0.31325838 0.49075338 0.34173676 0.279669 0.34730378 0.5804727 0.447923
0.41039848 0.29634517 0.53748345 0.31322998 0.3687599 0.6249749 0.5930546 0.441872

0.bn.bias f4 [64]
00000000: 6d80 3cbe bbb9 50be ba87 ce3e d4d3 8bbc
00000010: 7f57 4d3e be2c 1a3e 528f 6fbd fefa 73be
00000020: 4764 de3d e11e 003d ab37 69be 9710 20be
00000030: 88cb fa3c 6a91 073e e363 853e 4182 debe
00000040: bf7e 89be 3dc9 3fbe f6be febd d620 7dbe
00000050: 3595 5fbe 4cd6 6fbe 1ef1 ec3d 7e55 60be
00000060: 01d2 c7bd 8f39 f5bd 5642 26be af7f d8be
00000070: 3d99 6cbe 310d cfbc 38cb 72be f176 3abd
00000080: d2ea 9cbe 58b9 183d 2c55 0fbe d327 c73d
00000090: 911f a3be 0f2d e7bd 9915 92bd 0346 40be
000000a0: 8ee3 ef3c 0e31 b6bd 9ba2 43bd 1336 efbd
000000b0: de05 533e 615b dc3d 8a09 803c c5be 8b3d
000000c0: e360 0cbe c3a3 aabe 7fa4 e93d c686 00be
000000d0: 3225 5fbd 048a 83be d04b 22bd 5f95 c8bd
000000e0: 8dbb 8dbe 530a a1bb db67 03bd 5dca 74be
000000f0: 9519 71be 9dad 073e b705 cabc f332 903e
-0.18408366 -0.2038335 0.40337926 -0.017068781 0.20052908 0.1505613 -0.05848629 -0.23826215
0.1085897 0.03127945 -0.22775142 -0.15631329 0.03061463 0.13239065 0.2605277 -0.4345875
-0.26854512 -0.1872911 -0.12438767 -0.24719557 -0.21834262 -0.23421592 0.11569427 -0.21907613
-0.09756852 -0.11973869 -0.16236243 -0.42284915 -0.23105331 -0.025274845 -0.23710334 -0.045523588
-0.30647904 0.037286133 -0.13997334 0.09724393 -0.3186002 -0.11287891 -0.07133026 -0.18776707
0.029283311 -0.08896075 -0.047762495 -0.11680236 0.20607707 0.10759617 0.015629549 0.06823496
-0.13708834 -0.33328065 0.11408328 -0.12551412 -0.05447883 -0.25691235 -0.03962308 -0.09794115
-0.27682152 -0.004914561 -0.032081466 -0.2390532 -0.23544915 0.13249822 -0.024660928 0.2816387

0.bn.running_mean f4 [64]
00000000: 8ba7 d83e e14b fabf b372 a93e 41f7 6940
00000010: 3060 783e 2373 ed3e 31f0 eabf 8eba cabf
00000020: 23a1 543f a438 cd3f 5444 dabf e584 1bbf
00000030: 2b7c 73bf 976e 293f 2192 32bf 5557 dcc0
00000040: 5ee0 88bd 1433 acbf e183 f7bf 4d8a f9be
00000050: 76c5 2841 d779 05c0 b250 d5bc 5f69 70bf
00000060: f878 c6c0 8f0d 3b3f a40a 08c0 09be c2c0
00000070: 29c8 b7bf 62a5 0fc0 c770 91bf f8f4 bcbf
00000080: dd5e 9241 b420 2dbe 26ac 12c1 28ea 473f
00000090: a867 4941 d262 68bf f1e3 4ebf 2128 aabf
000000a0: 7a05 2040 8f9f 253f 945b 70c0 2984 0dc1
000000b0: b19f a63e 394b 10c0 03bf 8340 d12d bc3f
000000c0: f84b 76c0 48c4 0c40 5ade 2cbf 9a55 e4bf
000000d0: af71 fc40 ad8a c4bd c62f 18c0 fced e7c0
000000e0: 4de5 9dbf fe59 8a40 378f b5c0 0599 8941
000000f0: c745 f9bf ed2d a8bf 66b6 20c0 37a9 f8be
0.42315325 -1.9554406 0.3309532 3.6557162 0.24255443 0.46376905 -1.8354551 -1.5838182
0.83058375 1.603291 -1.7052102 -0.60749656 -0.9511134 0.6618437 -0.69754225 -6.8856606
-0.0668342 -1.3453088 -1.9337121 -0.48738328 10.548208 -2.0855615 -0.026039455 -0.93910784
-6.2022667 0.73067564 -2.1256495 -6.0856977 -1.4357959 -2.2444692 -1.1362542 -1.4762259
18.29632 -0.16907007 -9.167028 0.7809167 12.587807 -0.9077579 -0.8081656 -1.3293496
2.5003343 0.6469659 -3.7555895 -8.844766 0.3254371 -2.2545912 4.117067 1.4701482
-3.8483868 2.19948 -0.6752678 -1.7838624 7.8888774 -0.09596763 -2.3779159 -7.247801
-1.2335602 4.3234854 -5.6737323 17.199717 -1.9474419 -1.3139015 -2.5111327 -0.485666

0.bn.running_var f4 [64]
00000000: 5131 4041 e9b3 b242 5d28 8142 c4e3 6442
00000010: 8f0d 2642 a877 5342 d60a ac42 0354 b242
00000020: 21e6 4242 24af a442 5643 d042 a7dd 9042
00000030: 0e8a 8c41 b153 5a42 ff81 5341 8287 cb42
00000040: 37a7 9f42 f4b1 a142 3920 b342 5499 1643
00000050: 9382 f241 30d3 ca42 5920 3c42 a0f9 a942
00000060: d88d 4f44 8459 e542 6ebe b842 1999 1b43
00000070: dfba a842 2435 c642 a583 9942 1cdc 1d42
00000080: 4baa 6843 ff55 2d41 2079 1b44 50b8 3942
00000090: 3a17 1e43 d19a 3741 892b d440 452d be41
000000a0: fbe0 8142 4524 3242 2970 dc43 8764 6c44
000000b0: 8c59 5f42 2079 d342 2621 bd42 c9ea 5542
000000c0: 9e78 e143 1a47 0d43 4c8c 7c41 de5f ac42
000000d0: 79df a542 d2c0 9d42 b558 1643 e8d9 8944
000000e0: d2db 2443 664b 9042 606d 4944 c2ce 5b43
000000f0: 3df1 b342 3486 4041 b892 1b43 674d 2742
12.01204 89.35139 64.578835 57.222427 41.51324 52.86685 86.021164 89.164085
48.724735 82.34207 104.131516 72.432915 17.56741 54.58173 13.219237 101.76466
79.82659 80.847565 89.562935 150.59894 30.313757 101.412476 47.03159 84.98755
830.2163 114.674835 92.37193 155.59804 84.36498 99.10379 76.75712 39.46495
232.6652 10.833495 621.8926 46.429993 158.09073 11.475297 6.6303144 23.772104
64.939415 44.53542 440.87625 945.57074 55.83745 105.73657 94.56474 53.479282
450.94232 141.27774 15.784252 86.18724 82.93647 78.8766 150.34651 1102.8096
164.85867 72.14726 805.709 219.80765 89.97117 12.032764 155.57312 41.82559

1.conv.weight f4 [64, 64, 3, 3]
00000000: e403 1abc c880 3dbe 5376 ab3e 3c03 a1bd
00000010: 45f8 e6be 87d4 253e 1874 d83e fb8a 133e
00000020: 3158 a13e 3c63 233e f41e 3d3e bb30 c73d
00000030: a9f2 823e c698 063d 8b3c 5f3e 3f3c 4a3e
00000040: eddc d53d 48ab 343e 5be7 a4be fd85 3ebe
00000050: 16f2 00be 38e8 2abe b516 5abc d315 823e
00000060: e849 053e 5356 3abe 320e bbbe 54ae 29be
00000070: 89ce febd debd 11be 316b 1cbe 779d 29be
00000080: 5bc3 19be 0c2f 59be 6ac3 48be 9d2a 5bbe
00000090: 356f 8abd 5680 fa3c a8c4 2bbf c236 08be
000000a0: b499 a0bd 41f8 97be 36a1 3bbe 7e9b 36be
000000b0: 9c01 d8bd 87c1 bdbd ee3c 6cbd f503 ebbd
000000c0: 3ccf dcbd 4033 dcbd e9b3 ddbd 4c0c 1fbe
000000d0: b059 00be 74fa 10be 6752 053e d0c3 6a3e
000000e0: ad0f ef3d a27e 813e 30df 8f3d 1783 533e
000000f0: ed53 233c 5676 7f3e 9c70 c03d 6214 1c3e
00000100: 970f 5d3e fc82 f83d 71c5 933e ed2f 063d
00000110: 957b 503e 0b4c eb3d ef1e 563e e08e 1e3e
00000120: 372f debd 2b2f 7abd 8976 c4bd c3d4 d0bd
00000130: 12a3 03be 78c2 04be f87f 0fbe c42d 21be
00000140: ffca 25be ae3b 013e 19ad 853e 76c6 683e
00000150: 8675 003e 94de be3d 2546 05bd 34e1 3fbe
00000160: fa3c 97bd fd0e 1cbe 0354 1b3e 0253 663e
00000170: 5b2a c83d 2f50 963e 3822 023e 1a64 4a3e
00000180: 606d 223e aa2a 483e cd53 233e 8710 d83d
00000190: cc19 283e 0ce3 203e c837 2d3e cc27 7a3b
000001a0: e4c5 3f3e 91b7 633d 39d7 063e 0b5f d73d
000001b0: 2a1f 843d 1188 143e 1e3d af3d 0653 2c3e
000001c0: 5a73 413d bfbc 223e b8fb 503e 9454 ae3e
000001d0: 4d93 86be 7f1a febd 4099 82bd 735b c9bd
000001e0: facf dbbd 7671 17be 9763 fabd 6d85 52be
000001f0: 7a8e 16be 0395 22be b1e0 b13c 7532 f93d
00000200: 1ce1 603b 6d49 bb3c 2230 803e 0676 ca3d
00000210: 5f7b 4b3e cf01 133e f5f5 ddbe ce3b cfbe
00000220: 63c6 a2be 76f5 bebe b7c0 a5be bb68 3fbe
00000230: 21f8 71be ae40 66be df42 75bd 149a 0dbe
00000240: 7353 1f3e 8085 633e 213e f33d b010 a23e
00000250: 5987 c83c c6cc 263e 709f 0c3e 34a3 523e
00000260: 0792 383e f78c eb3d b5ba 443e 0210 223e
00000270: d52e 5d3e 336e 05bc 5dc2 433e 5fe9 ae3d
00000280: 1bea 4d3e 3e0a f93d 23cc 063e 456e 2a3e
00000290: 7ecd 383e 60ab 7d3e 4793 523c a2b4 653e
000002a0: bd6e a93d 1411 363e 9cf2 1a3e 9b05 b8be
000002b0: 4211 a5be 7fd7 9bbe 0319 a2be 9f90 a3be
000002c0: ad25 b5be 9e66 42be aa19 16be dd1d 77be
000002d0: 01fd ac3c c5d9 293d 082a c2ba 0fe7 e13c
000002e0: c70c bbbd 0fa9 1cbd 5495 32bd 52d7 94bd
000002f0: 7c16 53bd ebd7 ea3d 4c90 7e3e 5ff7 c43d
00000300: a1e5 903e a9f0 063e 5ee0 343e 6801 953d
00000310: b912 893e bccd 043e d555 82be abb3 4abe
00000320: 6ac2 49be c30e 0cbe a4fb b4bb bd57 a33e
00000330: 077f 10bc 9ed3 6fbe fe40 71bd 4fa9 2b3e
00000340: 73c1 6b3e e38d 193e cb4a af3e 145a 643d
00000350: 5791 3a3e abfd 3b3e 6108 483e a494 093e
00000360: b4f5 56bc f711 073e 6b14 413e 84c4 583d
00000370: 17d3 b5bd 1d83 a5bc 65c2 823c 7b8e b43d
00000380: 7b83 0e3d 26a7 c9be 281e abbe 1c7c b4be
00000390: d2f4 b9be ee8f 8fbe 0176 8ebe eeff 3fbe
000003a0: 0545 10be 5a50 45be a758 053e ceb4 673e
000003b0: 73c7 cf3d 541e 7f3e ef2e 353d d80c 333e
000003c0: 0d8e cf3b 14f8 863e 288b 093e 8373 a1be
000003d0: 02d6 7abe 095a 8dbe d0b0 82be fafe 4fbe
000003e0: 1f80 7bbe f929 91be 0a12 7abe fc55 81be
000003f0: 40e2 203e f4df 6c3e 4c07 f43d a8f7 933e
-0.009400342 -0.18506157 0.33488712 -0.07861945 -0.4511129 0.16194354 0.42276073 0.14408486
0.31512597 0.15955824 0.18468839 0.097260915 0.2557576 0.03286054 0.21800439 0.19749545
0.10442529 0.17643464 -0.3220776 -0.186058 -0.12592348 -0.16690147 -0.013311078 0.25407276
0.13016474 -0.18196993 -0.36534268 -0.16570407 -0.12441737 -0.14232585 -0.15275265 -0.16563974
-0.15015928 -0.21209353 -0.19605795 -0.21402974 -0.06759492 0.030578773 -0.6709695 -0.13302138
-0.078418165 -0.2968159 -0.18323216 -0.17832753 -0.10547182 -0.09265428 -0.057675295 -0.11475364
-0.10781714 -0.10751963 -0.10825331 -0.15532035 -0.12534213 -0.1415804 0.13019715 0.22926259
0.11672912 0.25291926 0.070249915 0.20655476 0.00996874 0.24947485 0.093964785 0.1524215
0.21587978 0.12134358 0.28861573 0.03276055 0.20359643 0.114891134 0.20910238 0.1548419
-0.10848849 -0.06108014 -0.09592921 -0.10196831 -0.12855175 -0.12964809 -0.1401366 -0.15740114
-0.16190718 0.12620422 0.26108626 0.22731957 0.12544832 0.09319797 -0.0325376 -0.18738252
-0.07384677 -0.15240093 0.15168767 0.22492602 0.09773704 0.2935805 0.12708366 0.19764748
0.15862036 0.19547525 0.15949936 0.10550027 0.1641609 0.15711612 0.1691581 0.0038170693
0.18727833 0.055594984 0.13168038 0.10516175 0.064512566 0.1450503 0.08556579 0.16828546
0.04722915 0.15892313 0.20408523 0.34048903 -0.26284257 -0.124073975 -0.06376886 -0.09831896
-0.10733028 -0.14789376 -0.122260265 -0.2055871 -0.14702788 -0.15877156 0.021713587 0.12167827
0.0034313863 0.02286216 0.25036722 0.098857924 0.19871281 0.14356159 -0.43351713 -0.40475315
-0.31791982 -0.37296647 -0.32373592 -0.18692295 -0.2362981 -0.22485611 -0.059878226 -0.13828307
0.15559177 0.22218895 0.118770845 0.31653357 0.024478601 0.16289052 0.13732696 0.2057007
0.18024455 0.11501496 0.19211848 0.15826419 0.21599896 -0.008143949 0.19117112 0.08540606
0.20108835 0.12160157 0.1316381 0.16643627 0.18047139 0.24772406 0.0128524965 0.22432187
0.08273075 0.17779952 0.1513161 -0.35941777 -0.3223973 -0.30437848 -0.31659707 -0.31946275
-0.35380307 -0.18984458 -0.14658228 -0.24132486 0.021116735 0.041467447 -0.0014813552 0.027575998
-0.091332965 -0.038247164 -0.04359944 -0.072676316 -0.051535115 0.11466964 0.24859732 0.09617495
0.28300193 0.13177742 0.17663714 0.07275659 0.26772097 0.12969106 -0.2545611 -0.197951
-0.1970307 -0.13677506 -0.005523162 0.31902876 -0.008819348 -0.2342057 -0.058899872 0.16763805
0.23023014 0.14995532 0.3423675 0.055749968 0.18219505 0.18358485 0.19534446 0.13435608
-0.013120104 0.13190447 0.18855445 0.052921787 -0.08878153 -0.020204121 0.015961835 0.088162385
0.03479336 -0.39385337 -0.33421445 -0.35250938 -0.36319596 -0.28039497 -0.27824405 -0.18749973
-0.14088829 -0.19268933 0.130221 0.22627565 0.10145464 0.24913913 0.044234212 0.17485368
0.0063340724 0.26361144 0.1343199 -0.3153344 -0.244957 -0.27607754 -0.25525522 -0.2031211
-0.24560593 -0.28352335 -0.24420944 -0.25260913 0.15711308 0.23132306 0.11915454 0.28899884

1.bn.weight f4 [64]
00000000: 62ad 9d3e 288a d63e 3a7f f83e a38c bc3e
00000010: f3ef 003f d535 1b3f f25b 943e 6631 ed3e
00000020: fb09 b23e 3d46 043f 5609 df3e 44dd 123f
00000030: 091b 023f e6d7 d03e 97c7 193f 5b06 e03e
00000040: 972e e33e 8621 e83e 8cf2 19bd 6573 fd3e
00000050: 074d d83e d704 033f 6095 d33e 6341 cb3e
00000060: 14c7 023f 0603 4a3d 5779 e73e c468 0c3f
00000070: fbb2 233f 0913 0e3f 2bc1 9c3e c01b aa3e
00000080: b36b dc3e 328c f93e ec5e 0f3f f7e9 b83e
00000090: ff27 873e c654 1f3f fedc 1c3f 9da3 133f
000000a0: 6258 5b3f 1c82 c33e 51a0 df3c b25b 353f
000000b0: f924 ad3e 76bd da3e 75a8 3dbd e5bb cb3e
000000c0: 80a0 0f3f 57aa a2bc dcb6 f53e 545b 1d3f
000000d0: 5543 cb3e f7c4 cc3e 9e34 87bd 2a37 e53e
000000e0: 44fa 063f 0124 053f 0368 4b3d 91b7 0f3f
000000f0: e4e9 363f c6ba c53e 4ea3 a43e 7484 bc3e
0.30796343 0.4190228 0.48534566 0.36826047 0.50366133 0.60629016 0.289764 0.4632675
0.3477324 0.51669675 0.4356181 0.57368875 0.508225 0.40789717 0.60070175 0.4375485
0.44371483 0.45338076 -0.037584826 0.49502102 0.42246267 0.5117926 0.41324902 0.39698324
0.5108502 0.04931929 0.45209762 0.5484736 0.6394498 0.55497795 0.30616125 0.33224297
0.43050918 0.48739773 0.56004214 0.36116 0.26397702 0.6223873 0.6127471 0.5767153
0.85681736 0.38185203 0.027298125 0.7084304 0.3381727 0.42722672 -0.04630323 0.3979179
0.5610428 -0.019856615 0.47991073 0.6146748 0.39699808 0.39994022 -0.06601833 0.4476865
0.52725625 0.5200806 0.04965974 0.56139475 0.7145064 0.3861906 0.32155842 0.36819804

1.bn.bias f4 [64]
00000000: c349 3d3e 77b6 cf3e 3fbe f73e 72d4 0abe
00000010: 9f74 073f a158 8f3f cd84 d7bd a966 11be
00000020: 1700 01be 2c67 22be 34b3 c13e e381 17be
00000030: c31c 183f d18b fd3e 1567 823f a56b c93e
00000040: 2339 1bbe 1f53 13be 6cd8 003b ebb7 ce3e
00000050: a972 e8bd 1c22 043f b715 1cbe 4c87 08be
00000060: aa44 2e3f fed3 42bb bbf9 14be 1d28 123d
00000070: 2765 d63e 833e 813f 1915 e7bd 719d ffbd
00000080: db5c 14be a741 f43e 8e08 4f3f 4686 0abe
00000090: d7e7 d1bd 1849 683f f482 2b3f 6090 fa3e
000000a0: 68a1 303f 5690 11be 3bd2 28b8 9e00 783f
000000b0: 6972 6c3e ad90 dc3e 3daf 15ba b964 8c3e
000000c0: 39cf 803f de5d f7bb d60c cc3e e09e 453f
000000d0: b9fb a03e 1692 16be 656f 003c 7f6c b43e
000000e0: 65bd 1e3f a155 303f 899c 9bbb ab07 d63e
000000f0: c878 5b3f 2663 663e 8205 f4bd b713 0bbe
0.18485169 0.40568897 0.48387334 -0.13557604 0.52912325 1.1198922 -0.105233766 -0.14199318
-0.1259769 -0.1585967 0.37832034 -0.14795642 0.59418887 0.49520734 1.0187708 0.3933994
-0.15158515 -0.14387177 0.0019660247 0.40374693 -0.11349995 0.51614547 -0.15242659 -0.13332862
0.68073523 -0.0029728408 -0.1454839 0.035682786 0.41874048 1.0097202 -0.11283321 -0.124812014
-0.14488547 0.4770634 0.8087243 -0.13527784 -0.10249298 0.9073653 0.66996694 0.48938274
0.68996286 -0.14215216 -4.0250114e-05 0.9687594 0.23090519 0.4307913 -0.00057100115 0.27420595
1.0063239 -0.0075490316 0.39853543 0.7719555 0.3144205 -0.14704165 0.0078390585 0.35239026
0.62007743 0.6888066 -0.004748885 0.41802725 0.8573117 0.2249876 -0.11915113 -0.1358174

1.bn.running_mean f4 [64]
00000000: 60c5 f9be 4cf0 2dbf 7eca c03f 0126 7bbf
00000010: 8677 ee3f 4421 9d3f f962 5dc0 852c 31bf
00000020: b500 a5bf 5f99 0dbf 15d7 6f40 61db f4bc
00000030: 1c15 4640 d608 d83f 3d7b c03e 71f0 8b3f
00000040: 3986 00bf e933 37bf 8012 edc0 4790 973f
00000050: 1776 dbbf 62e4 9e3f fc21 0abf 108a 1fbe
00000060: f6f2 cd3f 00be bfc0 647b 21bf ad34 863f
00000070: 1292 983e 7c05 653e a614 26c0 71b8 d3bf
00000080: 6a50 66bf e493 1f40 b3ca a7bf 1f12 65bf
00000090: fd29 3dc0 10f1 e73f d39c 893f fb12 6f3f
000000a0: 1a5d 24bd 7244 20bf 1086 b0c0 b156 ccbf
000000b0: 9b03 9e3f 7eca 72bf 29ee 08c1 74ac 633e
000000c0: a29a d23e ecc6 fabf 3727 823f 7f95 823f
000000d0: d13e ec3e c1c2 0fbf 1108 37c0 c561 9a3f
000000e0: 242c c2bf d2ad 0940 ce64 3fc0 463a 9a3f
000000f0: c5c4 f5bf 0198 81be 45f6 0bc0 61b4 6dbf
-0.48783398 -0.6794479 1.5061796 -0.98104864 1.8630226 1.2275777 -3.4591658 -0.69208556
-1.2890841 -0.5531215 3.7475026 -0.029889764 3.0950384 1.6877697 0.37594023 1.0932752
-0.5020481 -0.71563584 -7.4085083 1.1840905 -1.7145413 1.2413447 -0.53958106 -0.1558001
1.6089771 -5.9919434 -0.63078904 1.0484825 0.29798943 0.22365373 -2.5950103 -1.6540662
-0.8996645 2.4934015 -1.3108734 -0.89480776 -2.9556878 1.8120441 1.0750984 0.93388337
-0.04012785 -0.6260444 -5.516365 -1.5963956 1.234485 -0.9484023 -8.558145 0.22233754
0.411336 -1.9591956 1.0168217 1.0201873 0.46141675 -0.56156546 -2.8598673 1.2061087
-1.5169721 2.1512341 -2.9905276 1.2049034 -1.9200674 -0.25311282 -2.186906 -0.9285336

1.bn.running_var f4 [64]
00000000: daf9 dc42 9e12 ce42 7471 1543 9ce3 3843
00000010: 39f2 a642 16a6 0342 820e 4e43 3b13 1243
00000020: fc27 4143 2b4d cd42 d4ae c942 0df3 1b42
00000030: e6a5 8942 adb4 0042 57ef 3042 34c0 1143
00000040: 62d6 1443 205c 1743 e110 3144 ea24 f442
00000050: 0f8e 1343 0ab3 7442 eca5 2243 7961 2243
00000060: 3d5d 6542 676c f843 fbd5 1743 ead0 d741
00000070: 9a57 0b42 0918 2f42 5f9c 5143 75a4 4743
00000080: dcf1 2743 bebf 9542 16f3 5041 716f 3b43
00000090: b903 8a42 d21d 4242 59e0 8f42 e6ff 5541
000000a0: 227a 6341 45f1 3943 6929 0944 a1f5 7242
000000b0: bd4d 8343 8c96 8742 0da6 2344 67cb 0f43
000000c0: 850f 1f42 9713 ae43 3122 ed42 9a7f 0e42
000000d0: d631 3f43 433d 2c43 04a7 c043 4b02 4143
000000e0: 9e22 8641 590f 6342 a749 0544 d35a b242
000000f0: 21dc 7d42 25cd 9842 c18e 4d43 2fcc 4343
110.48799 103.03636 149.44318 184.8891 83.47309 32.912193 206.05667 146.07512
193.15619 102.65072 100.84146 38.987354 68.82402 32.17644 44.23373 145.7508
148.83743 151.35986 708.26373 122.0721 147.55492 61.174843 162.64813 162.38075
57.341053 496.8469 151.83586 26.977009 34.83555 43.77347 209.61082 199.64241
167.94476 74.8745 13.059347 187.43532 69.00727 48.52912 71.93818 13.374975
14.217318 185.94246 548.64703 60.739872 262.60733 67.79404 654.59454 143.79454
39.765156 348.15305 118.56678 35.62461 191.19467 172.2393 385.3048 193.00896
16.766903 56.764988 533.1508 89.17739 63.46497 76.40067 205.55763 195.79759

2.weight f4 [1, 64, 1, 1]
00000000: 0508 e0bd f3bd 9ebe 435a 88be 29ef f13d
00000010: 1711 a8be 995d 00bf c6e2 9b3d 581b 323e
00000020: d0db df3d d8b9 723e 0706 bebd 5179 583e
00000030: b0fe 3bbe e5f2 acbe 3e2a f9be 3509 55be
00000040: 640f 303e c827 2a3e 163b fabc 9432 5fbe
00000050: 3394 113e a80c dabe 0dea 183e 9a43 053e
00000060: ea74 8abe a639 193d 656f 2c3e 3d5c 3b3e
00000070: 74df a1be 0159 bcbe 6b2b b03d b04b d13d
00000080: ddb9 173e 1fa3 0dbe 829b bfbe 6fc2 ee3d
00000090: 68f4 a63d d5c3 b1be 0aaf 88be 930c 85be
000000a0: c492 dbbe fff3 053e 42b1 c93c 0173 efbe
000000b0: b47d bebd 5ef4 a3be cd2c 16bd 01fa 32be
000000c0: f8f2 c8be 1081 983c a7e6 75be 86f3 dcbe
000000d0: 6e3b 29be 4728 123e 5831 30bd 0156 ffbd
000000e0: 2979 62be 55e7 6dbe ca1a 163d 72a2 13be
000000f0: 8976 d4be ebb9 fdbd 0c8e be3d 93da f13d
-0.109390296 -0.31004295 -0.26631364 0.11813194 -0.3282554 -0.5014282 0.07611613 0.17393243
0.10930598 0.23703706 -0.092784934 0.21140029 -0.18358874 -0.33779064 -0.4866504 -0.20804293
0.17193371 0.16616738 -0.030545752 -0.21796638 0.1421669 -0.4258778 0.14933033 0.13014069
-0.27042323 0.037408493 0.16839369 0.18296905 -0.31615794 -0.36786655 0.08602031 0.10219514
0.14816995 -0.13831757 -0.3742333 0.11658179 0.081520855 -0.3471972 -0.26696044 -0.25986156
-0.4288541 0.13081358 0.024620656 -0.4676743 -0.0930132 -0.32022375 -0.03666382 -0.17478181
-0.3924787 0.01861623 -0.24013768 -0.43154544 -0.16526577 0.14273177 -0.043015808 -0.12467576
-0.22116531 -0.23232777 0.03664664 -0.14417437 -0.41496685 -0.12388977 0.09304437 0.11809268
