exp_52_ep_106/head_reg_out.pt (torch, 301963 bytes, 12 tensors)

0.conv.weight f4 [64, 64, 3, 3]
00000000: eea2 edbd 7330 3cbc 2c8c 91bd 3700 7ebd
00000010: 5d7d 98bd 9aaf 5bbe 257c 22be f1c5 2ebe
00000020: dbdf 4fbe 672d 143e d10e 5a3e db55 653e
00000030: 88db 733e 2453 ac3e 9d3e ab3e 66f8 1e3e
00000040: a191 433e 759f 513e e705 1f3e d39f c33d
00000050: f704 06bf 814e aabd 7180 b0bd 331b a2be
00000060: c830 59be 8978 3dbe 44eb 54be 1d33 393e
00000070: 9e17 343e bf04 483e 1462 b33e f36a a63e
00000080: dcef a53e 495e 5b3e f912 643e b09e 733e
00000090: 6fc4 ab3d f4cf 0bbd 7579 f6be c4fa aa3d
000000a0: 7105 2fbd 3414 34bf fb04 213d 2f04 d9bb
000000b0: e8a5 a2be 24a9 003c 08d6 92bd 00fe a63d
000000c0: 0a02 a83d 2d51 be3c 8fb0 4abe 4ee7 8f3c
000000d0: d382 583c cfaf 07be 92f9 f9bb 4441 633d
000000e0: 4c1d b63d 3617 ca3e 99c3 eb3e 7711 613e
000000f0: d699 ec3e 74a9 c93e f487 1b3e 2786 2abd
00000100: feea 25be 65ba 623d f36f 1a3e f489 c83d
00000110: 289f 7cbd 2e24 4c3d c6c7 c3bd d9ce 84be
00000120: c682 31be 373a 69be c9bc 5dbe 3391 b5be
00000130: cdab 87be 9e0d 74be 16c5 83be d93f 64be
00000140: 3aad a4be 8572 56be 5744 43be f33d abbd
00000150: 4c24 1dbe e34a 2abe b53d 01be 3944 cabd
00000160: e0ec 6cbe 9daa 75be f694 113d ba27 5a3e
00000170: 4bc1 253e 1cd6 3a3e b9b4 ad3e 9fc5 933e
00000180: e4fc 8b3d d23a 133e a612 413e 8675 583e
00000190: ed4c 973e 276f 9f3e bc6d e13e 6de2 bf3e
000001a0: d337 b43e 0746 7f3e 7015 593e c886 4f3e
000001b0: 2fc6 c43c a112 e73d b49b c43d c636 f63e
000001c0: 6368 ee3e 98da 613e 9de0 da3e 3550 b33e
000001d0: 781f 113e 8ba8 093e e281 5c3e 11ed 9f3e
000001e0: 0ebd d93e fac0 a53e 8144 a63e ef42 c43e
000001f0: 9db2 773e 4567 783e 56a3 1b3e d377 82bd
00000200: 0f08 823d 6319 003e 7a78 abbc 1169 d4be
00000210: afcd 053e acfc bfbd f161 52bf 0d38 47be
00000220: a123 b9bc 89b1 f0bd b73c 2ebe 2df9 07be
00000230: a129 91be 6fd6 1a3e a8e1 d63a 4c46 75be
00000240: 97b0 1e3e e28d 18bd 014d 97bb 7d84 b73d
00000250: 709c b13d 44e4 13be 92ff 05bd c97a 5c3d
00000260: be3f 30be 52c5 803d 60c0 4e3e 6f6b 073e
00000270: d6a5 023f cbd0 f13e 3b04 623e d2c0 c83e
00000280: 6aee a53e 3195 f53d 2f2a 063e 97b6 653e
00000290: e328 8c3e e20b ff3e c46c d23e 7805 8f3e
000002a0: 9d98 b83e 01b3 813e 44c7 053e 5945 263e
000002b0: 9e3a 543e a829 763e 28df 923e 373d a83e
000002c0: 4337 be3e 1945 233e 1795 443e 14d7 543e
000002d0: daf4 12be f3ab 0dbd f1f8 48bd 9991 b8bd
000002e0: 926b 8cbd 9bfc 03be fbfe 14be 187c 1abe
000002f0: dc79 14be 4c6e 9fbe 09a1 123d 7941 b23e
00000300: ca8a c93b 4dc8 77bd bf7f 2d3e 4625 8c3d
00000310: d065 94be 818c 91be 91a7 83bb 2eea aebd
00000320: 9e50 85be fc72 c8bd c52c 12be 2b09 42be
00000330: bc1b 8abd 4f06 83bd c3f2 63be e670 57be
00000340: 72ba 44be 1f8d 0b3c d066 25be ad42 2bbe
00000350: 6381 b8bd cea8 acbd e625 65be b276 6fbe
00000360: db10 f2bd ba06 1dbc f7ad 49bd bcd3 b9bd
00000370: 6d4c d5bc 9b13 40be 9322 28be 21ed 37be
00000380: f755 31be dff4 0f3e 1fd9 b0bd 19bd 8d3d
00000390: b55c e33d 428f 1fbd 57fe c3be be1f d13d
000003a0: 9e1a b0bd 3e05 4abf 2066 b43d 4cb3 393e
000003b0: 33e4 573e 58b2 7d3e 52a1 a53e d3d3 a23e
000003c0: 2cf0 223e 7f5f 4b3e b975 5a3e a6ef 6bbd
000003d0: 24a0 93bd 626c e93d 5232 903e 887a d33c
000003e0: 8471 e03d 4d8a ad3e e61c db3d cb91 2d3e
000003f0: 52bb 223e b946 a0bd 742d 893e 3c79 713e
-0.11603342 -0.011486161 -0.07106814 -0.062011924 -0.07445786 -0.21453705 -0.1586767 -0.17067696
-0.20300238 0.14470445 0.21294715 0.22396033 0.23814213 0.3365718 0.33446208 0.15524444
0.19098522 0.20470984 0.15529595 0.095519684 -0.52351326 -0.08315755 -0.08618248 -0.31661376
-0.21210015 -0.18503012 -0.20792872 0.18085904 0.17587134 0.1953306 0.35035765 0.3250347
0.3240956 0.21422686 0.22272862 0.23791003 0.08387076 -0.034133866 -0.4813954 0.08348611
-0.0427298 -0.7034333 0.03931139 -0.006622813 -0.317672 0.007852826 -0.071697295 0.081539154
0.08203514 0.023232067 -0.19793914 0.01756635 0.013214785 -0.1325066 -0.007628628 0.055482164
0.08892307 0.39470834 0.46047667 0.21979319 0.46211118 0.39387095 0.15188581 -0.041631844
-0.16202924 0.05535354 0.15081768 0.097919375 -0.06167522 0.04983919 -0.09559588 -0.25939062
-0.17335042 -0.22776113 -0.21654047 -0.3546234 -0.2649826 -0.2383332 -0.25736302 -0.22289981
-0.3216341 -0.20942123 -0.19069038 -0.08361425 -0.15345877 -0.1663013 -0.12621196 -0.09876294
-0.23137236 -0.23990865 0.03554245 0.21304217 0.16187017 0.18245739 0.33926943 0.2886171
0.068353444 0.14377907 0.1885477 0.21138582 0.29550877 0.3113949 0.44029033 0.37477437
0.3519884 0.24929057 0.21199584 0.20266259 0.024020283 0.1128285 0.096000105 0.48088664
0.46564016 0.22056043 0.4274949 0.3502213 0.1417216 0.134432 0.21533921 0.31235555
0.4252705 0.32373792 0.3247414 0.38332316 0.2418923 0.24258144 0.15199026 -0.06370511
0.06349193 0.12509684 -0.020931471 -0.4148641 0.13066743 -0.09374365 -0.82180697 -0.19454975
-0.022599997 -0.11752612 -0.17015348 -0.13278647 -0.28352073 0.15120862 0.0016394155 -0.23952597
0.15497051 -0.037244685 -0.004617334 0.08960817 0.08672416 -0.14442545 -0.032714434 0.053828035
-0.17211816 0.06287636 0.20190573 0.13224576 0.51034296 0.4722961 0.22071926 0.3920961
0.32408458 0.11991347 0.1310203 0.22432934 0.27374944 0.49813753 0.41098607 0.2793386
0.36053935 0.25331882 0.13064295 0.16237392 0.20725486 0.24039328 0.2868588 0.32859203
0.37151536 0.15944327 0.19197498 0.20785171 -0.14351216 -0.03458781 -0.049065534 -0.090121455
-0.06856455 -0.1288933 -0.14550392 -0.150864 -0.1449961 -0.31138837 0.035798106 0.34815577
0.006150578 -0.060493756 0.16943263 0.06843047 -0.28983927 -0.28427508 -0.004017778 -0.0854076
-0.2603807 -0.097875565 -0.1427489 -0.1894881 -0.06743571 -0.06397688 -0.22260575 -0.21039161
-0.19211748 0.008517533 -0.16152501 -0.16724654 -0.090090536 -0.084306344 -0.22377738 -0.23385122
-0.11819621 -0.009584123 -0.04923817 -0.09073588 -0.02603742 -0.18757479 -0.16419439 -0.17961551
-0.17317949 0.14058255 -0.086351626 0.06920833 0.11101667 -0.03895498 -0.38279983 0.102111325
-0.08598827 -0.7891425 0.08808541 0.18134803 0.21083145 0.24775064 0.3234964 0.31802234
0.15911931 0.19860648 0.2133397 -0.057601593 -0.07208279 0.113976255 0.2816339 0.025815263
0.109591514 0.33894578 0.10698871 0.16950147 0.1589177 -0.07825989 0.2679249 0.23581403

0.bn.weight f4 [64]
00000000: 6564 bb3e 2454 0d3f 7350 073f e7db 183f
00000010: 980a d63e 3838 253f 7821 dc3e fc2e 253f
00000020: 9e19 d23e cb2b 233f 5165 ae3e f33c f43e
00000030: 1f29 c33e 60ab 2c3f 0c6a df3e 15f0 af3e
00000040: 721c e73e 52cc 143f d3db f03e f852 c33e
00000050: 13bd 223f 76b6 183f e3f9 cf3e c286 ea3e
00000060: f810 013f d0ff 293f e345 1d3f b4bc b33e
00000070: 5c93 e73e b965 153d 867b ad3e 9e41 c03e
00000080: 6d81 c83e a306 1d3f 4308 153f 425a f33e
00000090: ba82 0e3f e526 193f e1da e23e 747a c73e
000000a0: acd4 d13e 0b8a b63e d5dd e33e 3084 233f
000000b0: ec8b d73e 42a4 f53e 8a3c 4f3e 466a 1f3f
000000c0: 0232 b83e 9941 d83e 4a9d 083f 8fd9 d53e
000000d0: 5717 f23e a1dd d03e 6627 dc3e 0191 a03e
000000e0: 4def 253f a84f a63e a98d f9b9 a82a b23e
000000f0: 7de3 063f 4ee5 e33e c905 193f 6cc9 053f
0.36600032 0.55206513 0.5285713 0.59710544 0.41804957 0.6453891 0.42994285 0.6452482
0.4103517 0.637387 0.34061673 0.4770275 0.3811731 0.67449 0.43635595 0.34362856
0.4513889 0.5812427 0.47042713 0.38149238 0.63569754 0.59653413 0.40620336 0.45805937
0.5041652 0.66405964 0.61434764 0.35104907 0.45229614 0.036473963 0.33883303 0.37550062
0.39161244 0.6133825 0.5821573 0.475298 0.5566822 0.59824973 0.44307616 0.38960612
0.40982568 0.35652193 0.44505182 0.6387358 0.4209894 0.4797688 0.20237938 0.62271535
0.35975653 0.42237547 0.53365004 0.41767547 0.47283432 0.4079409 0.4299881 0.3136063
0.6481827 0.32482648 -0.00047598526 0.3479817 0.5269087 0.44510883 0.5977445 0.5226047

0.bn.bias f4 [64]
00000000: 10cc 59be 1399 02bf 2e03 7bbe cc38 23be
00000010: 6549 0ebd 8bd4 bebd 5f18 04be 6cf0 b5bd
00000020: bd6e 1bbe e30a e0bd e62b bf3c 5f42 86be
00000030: 149e 45be 4459 60be bfff 83bd 2af3 09be
00000040: 9bdc d3bd 0976 4fbe be75 913e 7fc8 2ebe
00000050: 9fcd a2bd 9f61 adbe 225b 2cbe 95e5 b83e
00000060: b40c cb3e 5c29 bbbd 8a9d 48be dc84 b43d
00000070: 7d15 10be 9ce5 a2bf 34bc 4d3d 83b0 0e3e
00000080: 0452 41be 838a 81be 5f1f 31be 58ae af3e
00000090: 9a26 0cbf dd23 73be 1574 e93d df95 183e
000000a0: 1b75 473e c24e 213d dadb 373e cc74 95bd
000000b0: 31ff 6d3e be4f eebe 1f7a 3dbe 63a9 8dbe
000000c0: 80b0 cb3d 4ea5 d3bd 241b b7be d29f 1abe
000000d0: 6c64 bc3e c281 5c3e b14f 8c3e 1285 1abe
000000e0: a79e 9fbd 0dfa bb3c f878 2bbd 4a2d 973d
000000f0: 8486 8abe 5f87 663e 10fb 49be 0f28 a3be
-0.2126925 -0.5101482 -0.24512932 -0.15939635 -0.034737963 -0.09317883 -0.12899922 -0.088837475
-0.15178962 -0.109395765 0.023336362 -0.26222512 -0.19298583 -0.21909052 -0.06445264 -0.13471666
-0.103448115 -0.2025987 0.28410143 -0.1706867 -0.07949375 -0.3386354 -0.1683164 0.36112657
0.3965813 -0.09138748 -0.19591346 0.088144034 -0.14070697 -1.2726321 0.050228313 0.13934521
-0.18878943 -0.2530099 -0.17297123 0.343127 -0.547464 -0.2374415 0.11399094 0.14900921
0.19478266 0.03938175 0.1795496 -0.07297668 0.23241879 -0.46545213 -0.18503617 -0.27668294
0.09945774 -0.10334264 -0.35762894 -0.15100029 0.36795366 0.21533874 0.2740455 -0.15089825
-0.077939324 0.022946382 -0.04186341 0.07381685 -0.27055752 0.22512577 -0.19724679 -0.318665

0.bn.running_mean f4 [64]
00000000: 0834 2540 6187 e4bf 66aa e03c 05d5 89be
00000010: 3a80 8fc0 2067 0b3e 6229 5f40 2a65 353c
00000020: ded7 5b40 064b c83b 259c 85c0 915a e9bd
00000030: debc 4740 0016 1d3e 7a49 0440 2d0a 88c0
00000040: 89fa 5a40 1c49 e4bd 9861 83c0 c9f3 5d40
00000050: 060c 173e 5c20 4b3f 44a3 5b40 588a 78c0
00000060: 5239 7ec0 f105 553e 4ecf 4d3e 54bc 85c0
00000070: fdb4 6540 9da9 7940 c8a0 84c0 952e 84c0
00000080: 702c 3e40 84af 133e b346 4a3c 8319 7bc0
00000090: 582f b4bf dc59 783e 45fd 84c0 4f41 84c0
000000a0: 44f6 80c0 9400 86c0 9f82 87c0 3fcd 4d3f
000000b0: 27dc 7fc0 d79f 80bf 89fd 9bc0 9ffc 9a3e
000000c0: 34bb 82c0 7259 2840 2fac 1f3f d786 2640
000000d0: ee9e 7ec0 9ccb 81c0 8014 82c0 7185 85c0
000000e0: 67bf b53d c824 88c0 bbe1 8340 22c1 81c0
000000f0: f1c6 5dbd 6ea2 85c0 245f f5bb 230b 503f
2.5813007 -1.7853814 0.027425002 -0.26920334 -4.4844027 0.13613558 3.4869008 0.011071483
3.4350505 0.006112459 -4.1753106 -0.11394227 3.1209025 0.15340424 2.0669847 -4.251242
3.4215415 -0.11146757 -4.1056633 3.4680045 0.1475068 0.7934625 3.43184 -3.8834438
-3.9722486 0.20803048 0.20098612 -4.1792393 3.5891716 3.9009774 -4.1446266 -4.1306863
2.9714622 0.14422423 0.012345958 -3.923432 -1.4076948 0.24253029 -4.1559167 -4.1329722
-4.0300617 -4.1875706 -4.234695 0.80391306 -3.997812 -1.0048779 -4.874699 0.3027086
-4.085352 2.6304593 0.62372106 2.60198 -3.9784503 -4.0561047 -4.0650024 -4.172539
0.08874398 -4.25449 4.121305 -4.054826 -0.054144803 -4.176078 -0.0074881483 0.81266993

0.bn.running_var f4 [64]
00000000: 1547 1944 6f46 7442 22a2 4742 8eb4 1342
00000010: 02c1 b343 ccef 4b42 f763 5844 a8d6 3142
00000020: 1aa1 5d44 0785 3e42 2f22 f743 f1b9 5c42
00000030: 572b 3f44 d79e 5042 190a dc43 74b2 ea43
00000040: dbe9 5044 1626 3f42 e0d2 f243 5215 5744
00000050: c4ae 3442 55de ed41 3005 5444 e35e ea43
00000060: 9a48 e643 32ba 3342 7293 4042 e770 0244
00000070: c6b2 6744 09be 8a43 7829 0144 eae5 f343
00000080: 58b7 3444 27ae 2e42 7207 8542 4c2d f243
00000090: cfe5 4942 bf22 2c42 c543 d543 c7e6 0a44
000000a0: a353 e343 ac66 0144 e119 fc43 0d03 ad42
000000b0: 8bac e943 6858 0442 bfc8 5444 2d41 3942
000000c0: e5d5 f343 4c0d 1244 094c ed41 da39 1b44
000000d0: 14c7 df43 cb5a f443 a11a ea43 8514 eb43
000000e0: 2302 4542 d133 2544 47f3 9243 21f6 fc43
000000f0: 26a0 7741 315f e243 37ab 4042 8441 fa41
613.11066 61.068783 49.908333 36.926323 359.50787 50.984177 865.56195 44.459625
886.5172 47.62991 494.26706 55.181583 764.6772 52.155117 440.0789 469.39417
835.654 47.787193 485.64746 860.3331 45.17067 29.73356 848.08105 468.7413
460.5672 44.93183 48.14399 521.7641 926.79333 277.48465 516.64795 487.7962
722.86475 43.67007 66.51454 484.35388 50.474422 43.03393 426.52945 555.6059
454.6534 517.60425 504.20218 86.50596 467.348 33.086334 851.13666 46.31365
487.67105 584.20776 29.662127 620.90393 447.5553 488.70932 468.20804 470.1603
49.252087 660.80963 293.9006 505.92288 15.476599 452.74368 48.167202 31.28199

1.conv.weight f4 [64, 64, 3, 3]
00000000: 6918 303d f6b3 3a3e 6374 e53e f744 d33d
00000010: a159 633e 055a 143e a0b1 d23d 00fa 943d
00000020: 244b aabb 1342 103d cd8f a1bc 781b 0abd
00000030: f5ff da3e c4cd 5fbd dc14 e0be 37ad 2e3e
00000040: e17b 27be 6fe3 3bbe 1035 653e afe0 ef3d
00000050: 57c1 793c 79ed 1a3e 9f69 5a3e f671 b13d
00000060: 8c66 073d 847f 86bb db44 92bd 22a2 053e
00000070: 298d f03d e8b2 25bc c69a a03e 402d fd3d
00000080: e396 75ba f884 813e ada3 573c 224d 6bbe
00000090: cefb 47be 67a9 2f3e eb91 b83c ff0a 85be
000000a0: 541d 133d 1f9e 963d 503d 84be b709 44bd
000000b0: bbdf 7a3e 465e ed3d 4dc9 233d a399 1c3d
000000c0: ba99 983e 69f6 0c3e eea9 7c3d 1b39 8b3d
000000d0: 58a1 6b3d f24f a5bc 40e9 663d fd2c 613e
000000e0: daf1 e43e eddd 1d3e f61c 803e 4223 c43e
000000f0: 9b8d 493e d937 3b3e 9eb7 dbbb 611f 043e
00000100: 7b6f 9a3d de87 a83c 923c a23e 42d0 183e
00000110: 8e49 313d c900 383e e259 893d dac6 b2bd
00000120: 63d7 823d 99e5 553e 7572 dd3e 9c99 e63d
00000130: f4d9 523e f894 aa3e 3cf8 083e 4943 1b3e
00000140: 1afb 09bd 4fde 043e d53e bd3d 63db 413c
00000150: e6a0 a53e 9d29 283e 2f9a b73c cb7c 893e
00000160: 9426 9c3d 801f 22be 8b48 3fbe 7ab4 073e
00000170: 7cb5 253e 36da 2abe 9f7e 8e3d 34b7 cf3e
00000180: f254 06be ee87 093e c390 76bd 7ced 4c3e
00000190: ed35 c93d eea9 cb3b 5625 143e 8d6d 433e
000001a0: cbcf 6d3d 3d1f fb3c 1f68 23bd a0b5 2dbd
000001b0: 9a0e 0a3d 9e8d 473e 8124 d83e 0529 af3d
000001c0: 3f6a 5f3e 79df 503e 21ee a63d 7d5e 323e
000001d0: cd80 903b 6195 6d3e dc07 0e3e fd8d 943d
000001e0: 0431 ac3e f3bb f23d 0583 213d 0c9f cf3d
000001f0: 04f5 c3bd a85b 3dbe 53bf 9c3d d9fc 243e
00000200: c8d0 053f 0cc0 163e 94e4 323e 4b26 c83e
00000210: 717b 553e 9f3a c23d 47d5 913c 8e09 0cbe
00000220: b250 343d 261d 3a3e efad 1ebe 2c59 47bc
00000230: fab6 713c 26cf 06bd 7268 253c b1c4 4d3d
00000240: 2cde 993d b681 593e 149d e83e 1b39 213e
00000250: 6d70 793e c25f c43e 14ac 3e3e fe65 323e
00000260: 12a8 b83c 3e91 6b3e 8170 1e3e a997 283d
00000270: 5576 083e bf4b 883e 4edb cb3d 96a4 7a3d
00000280: 1433 c03c 8c73 3fbd 9ee3 58be e67f 243e
00000290: c705 073e 0e8f 65be 2b39 143d 9afb c73e
000002a0: 1e69 0fbe a30f 373e d47e 723d 3471 6d3d
000002b0: 4ed5 5e3e c9ee c63e caa9 053e bd03 773e
000002c0: 73d4 ad3e 1c73 403e 3e0a 2e3e 75d1 1ebc
000002d0: d6b0 e43d 4b9a 6a3d edca 213d 17ff a83e
000002e0: 91b4 193e ce25 243d 90ee 0b3e 0f75 a33d
000002f0: c663 2bbd b1d8 893e 05c1 ee3d 9ab7 4eba
00000300: 8d24 bc3e 17d0 133d 3b48 bdbe 4051 063e
00000310: b26f 2fbe d137 8dbe 4bd6 783d eff8 463e
00000320: 6fde e23e d4c8 103e d037 6b3e ec7f 8e3e
00000330: a1c1 f63d d8d6 3c3e 5e3a 5abc 4e95 83be
00000340: b629 493d 52eb 6a3e 06d5 87be af91 a43c
00000350: bc8f e33e 129b 5cbe 2080 3e3e 44cf 9f3d
00000360: 71e9 86be 9485 e83d 1704 833e 3786 42be
00000370: e1b2 eb3c 07c6 e83e 1479 acbd b151 f73d
00000380: 2d87 60bc a92f 0d3e 804b 1d3d 5fdd 963d
00000390: 8209 a73e 1354 2d3e 9542 6e3d 1f53 f53d
000003a0: c376 fb3b af13 163c 2bf0 2a3e 7cef b73d
000003b0: 2925 053d ac96 b63e 84c2 e53d 274f 8cbc
000003c0: 1a7d a83d 9916 3fbd 1c2c 32be 0741 6abe
000003d0: cb12 bf3d 5258 993e 86df 51be d3ae ca3d
000003e0: d3fd f53e 1b2f 3abe 2f51 453e e5fc 92bd
000003f0: 4b29 e93d 3ab2 5f3e fed5 e43e 3964 273e
0.04299203 0.18232712 0.4481536 0.103158884 0.2220216 0.14487465 0.102877855 0.07274246
-0.0051969457 0.035219263 -0.01972189 -0.033717602 0.42773405 -0.054639593 -0.43765914 0.17058264
-0.1635585 -0.18348478 0.22383523 0.11712777 0.01524385 0.15129651 0.21329354 0.086643144
0.03305678 -0.0041045565 -0.071420394 0.1305013 0.11745674 -0.010113455 0.31368083 0.123621464
-0.0009368492 0.2529676 0.013161582 -0.22978643 -0.1952965 0.17154466 0.022530517 -0.25984952
0.03591664 0.07354378 -0.25828028 -0.047860827 0.24499409 0.11590247 0.039986897 0.038232457
0.29804784 0.13765873 0.061685495 0.067980014 0.057526916 -0.020179722 0.05637479 0.21989818
0.44715768 0.15416689 0.25022095 0.3830815 0.19682924 0.18283023 -0.0067052385 0.12902595
0.075407945 0.020572599 0.31686836 0.14923194 0.043283038 0.1796905 0.06706597 -0.08729334
0.06388738 0.20888366 0.43251386 0.112597674 0.20590955 0.3331678 0.13375944 0.15162386
-0.033686735 0.12975429 0.092405 0.011832091 0.32349318 0.16422124 0.022412388 0.26853022
0.07624546 -0.15832329 -0.18680017 0.1325244 0.16182512 -0.16684803 0.06957745 0.4056946
-0.13118342 0.1343076 -0.06019665 0.20012468 0.09824739 0.0062153256 0.14467368 0.19084759
0.058059495 0.030654544 -0.03989422 -0.04240954 0.03370533 0.19487616 0.4221535 0.08552746
0.21817873 0.20397748 0.08150888 0.17418857 0.0044098855 0.23201515 0.13870186 0.072536446
0.33631146 0.11852255 0.03943159 0.10137758 -0.095682174 -0.18491995 0.0765368 0.16112079
0.522717 0.14721698 0.17470008 0.39091715 0.2084787 0.09483837 0.017801894 -0.1367552
0.04402227 0.18175182 -0.15496038 -0.012167256 0.014753098 -0.032912396 0.0100957025 0.050236408
0.07513079 0.21240887 0.4543234 0.1574444 0.24359293 0.38354307 0.1862033 0.1742172
0.02254108 0.23004624 0.15472604 0.04116026 0.1332639 0.2662029 0.099539384 0.061192118
0.023461856 -0.046741053 -0.21180579 0.16064414 0.13185798 -0.22417852 0.036187332 0.39059144
-0.14004943 0.17877059 0.059202984 0.057969287 0.21761057 0.38854054 0.1305305 0.2412252
0.33951148 0.1879391 0.16996095 -0.009693493 0.11166541 0.05727605 0.039500166 0.33007118
0.15010287 0.040075116 0.13665223 0.079813115 -0.0418432 0.26923135 0.11657909 -0.0007885635
0.36746636 0.03608712 -0.3696917 0.13116932 -0.17132452 -0.27581647 0.06075124 0.19430898
0.44310328 0.1413911 0.2297051 0.27831972 0.120486505 0.18441331 -0.01331958 -0.25699848
0.049112044 0.2294133 -0.2652971 0.020088999 0.44445598 -0.2154353 0.18603563 0.07803205
-0.26349977 0.11353603 0.25589058 -0.18996511 0.02877182 0.45463583 -0.08421531 0.12076128
-0.013704103 0.13787712 0.03840208 0.07366442 0.3262444 0.16926603 0.058168966 0.11978745
0.0076740696 0.009159966 0.1669318 0.08981225 0.03250614 0.3566183 0.112187415 -0.017127587
0.08226986 -0.04665241 -0.17399639 -0.22876368 0.09329756 0.29950196 -0.20495424 0.09896626
0.48045215 -0.18182032 0.1926925 -0.07177142 0.11384829 0.21845332 0.44694513 0.16346826

1.bn.weight f4 [64]
00000000: 04c9 fa3e f43c b63e 9eb7 ec3e 369c f93e
00000010: 8a0e e43e eca0 d43e 2a2b 073c 4e3f 5f3e
00000020: 7873 b93e a5e1 063f 4863 97ba 0e17 f83e
00000030: 5eea bf3e fb7b b33e a53b 1e3e 713e f73d
00000040: 8891 e13c 8ebd ad3c 722a e53e 5439 013f
00000050: 7d02 053e 0715 a43c 6bd8 bf3e d536 073f
00000060: 2ee0 fd3e 7a08 9a3e 8d9a d23e 3e91 ac3e
00000070: 5b12 a03e 424f ee3d 267b f93e 0976 5abc
00000080: 1f4d aa3e b16e d73e 5abd e43e 613e 123f
00000090: 42b0 a43e 36ed dc3e a7c8 ae3e 474d 3dba
000000a0: 2ae3 d73e aaaa da3e 27bb c83e 31fd bf3e
000000b0: cd6c a03a c9ca 7abc 4f15 0d3e 4c46 a53d
000000c0: 82e2 b33e 3652 003f 122a b63e 0baf ec3e
000000d0: 3c67 693e 2559 243d 294b a2bc 0c98 c13e
000000e0: 8784 cc3e 9061 ef3e 9337 fe3e 5f2f 003f
000000f0: 89d7 c03a fda5 6c3e e253 1e3f 70b1 af3c
0.48981488 0.3559338 0.4623384 0.48751992 0.44542342 0.41529024 0.008250037 0.21801493
0.36220908 0.52688056 -0.0011549974 0.4845509 0.37483495 0.35055527 0.1545244 0.12072457
0.027535215 0.02120855 0.44758946 0.504781 0.1298923 0.020029558 0.374698 0.5281804
0.49585098 0.30084592 0.41133538 0.3370456 0.31264004 0.11636211 0.48726767 -0.013333806
0.33261964 0.42076638 0.44675714 0.5712643 0.32165724 0.43149728 0.3413746 -0.0007221293
0.421655 0.4270833 0.39205286 0.37497857 0.0012239456 -0.015307137 0.1377766 0.08070049
0.3513375 0.50125444 0.35578972 0.46227297 0.22793287 0.040124077 -0.01981123 0.37811315
0.3994486 0.46754122 0.49651775 0.5007228 0.0014712672 0.23110195 0.61846745 0.021446913

1.bn.bias f4 [64]
00000000: 8992 3bbe eed8 b4bc c024 313e 4661 33be
00000010: d963 063c 9244 03be d5f4 4d39 3234 503d
00000020: 8ada fabd f41d 82bb 5ace cfb7 e96a a33d
00000030: 302f 22bd 6aae f9bd 0689 0c3d 38b2 ba3c
00000040: 27a8 fd3a 9d2f 7cbb 1eed 68bc 4c79 afb9
00000050: 3599 c1bc 9061 48b9 0f59 d63d 053b c73d
00000060: 1c48 6c3c 2588 a0bd 35a9 a73d e247 8a3d
00000070: b9b0 b3bd 77f7 61bc 8621 8d3d 1dd9 d539
00000080: 32fd 82bd 5f5e 883c 74c4 0ebe bf20 adbe
00000090: 36c0 92bd afb4 0ebd 9892 f6bd 88fa 7538
000000a0: 0d66 823d 1e63 103c 05a3 18bd 9cc3 0cbb
000000b0: f0d2 e7b7 9fbc e7b7 c9a6 d83c c3b4 453c
000000c0: 10cd a93c b174 40be 5c73 aebd 881e 0e3d
000000d0: b953 42bd af18 8e3b 6d52 8e38 49ea 1cbe
000000e0: 6271 003d 574e 363d 0178 a5bc 99cf aa3c
000000f0: 69fc 3937 2db9 5a3d 34bc e1be b602 243b
-0.18317617 -0.022076096 0.17299175 -0.17517576 0.0082025165 -0.12819126 0.0001964153 0.050831027
-0.12248714 -0.003970856 -2.4772413e-05 0.07979376 -0.039595783 -0.1219147 0.034310363 0.02279006
0.0019352481 -0.0038480528 -0.014216689 -0.00033468974 -0.023632625 -0.00019109831 0.10466205 0.09728054
0.014421489 -0.078384675 0.081865706 0.06751992 -0.087739415 -0.01379191 0.0689116 0.00040788288
-0.063959494 0.016646562 -0.13942128 -0.33814046 -0.071655676 -0.034840282 -0.12039679 5.8645877e-05
0.06367121 0.008812694 -0.037264843 -0.0021478897 -2.7635571e-05 -2.762518e-05 0.026446717 0.012067023
0.020727664 -0.18794514 -0.08518097 0.034697086 -0.047443125 0.0043364386 6.786441e-05 -0.15323748
0.03135813 0.044508304 -0.020198824 0.020850943 1.1085628e-05 0.053399254 -0.440889 0.002502603

1.bn.running_mean f4 [64]
00000000: 4ad5 8cbe 5f34 5940 9f3f 36c0 bbbc 5240
00000010: 6649 3a40 9442 9fbf 8fff db3f 44ca 87bf
00000020: c7f3 e8bf c591 2a40 a656 0d3f 7633 df3f
00000030: 33bf e8bf f9d8 f8bf d4b7 9bbd f44f 06c0
00000040: d3e9 8fc0 25cd 61c0 5e11 3940 6734 1840
00000050: 06ca 3e40 f52a 9d40 c41c 54c0 da72 da3e
00000060: 5d1f 1240 9290 0cc0 a899 11c0 7dbd 3fc0
00000070: 8ff5 0ac0 1c60 ad40 78e2 1540 fbc4 9440
00000080: 052b f1bf bbe9 8bbf 6638 86bf b192 e33f
00000090: 68d5 fabf 7319 4a40 a709 f1bf a33b d83e
000000a0: b6a5 f1bf d4da 4640 78c0 4640 629b febf
000000b0: c378 4e3a 3036 d3bd 643d 6ec0 31db 93c0
000000c0: ebf1 11c0 c35b 7040 d229 5e40 5794 3140
000000d0: dcdd 3340 b813 37c0 a22b 0040 84ed c9bf
000000e0: 649e dcbf 0a10 0b40 2f99 2040 4480 1c40
000000f0: 43af 0bbf 449e 87c0 a5af bd3f 8562 8dc0
-0.27506477 3.3938215 -2.8476331 3.2927692 2.91073 -1.2442193 1.7187365 -1.0608602
-1.8199395 2.665147 0.5521034 1.743758 -1.8183349 -1.9441215 -0.07603422 -2.09863
-4.497293 -3.528146 2.891685 2.3781984 2.9810805 4.911494 -3.3142557 0.4266575
2.2831643 -2.1963239 -2.2750034 -2.9959404 -2.1712377 5.417982 2.3419476 4.6490455
-1.8841254 -1.0930704 -1.0485961 1.7779142 -1.9596376 3.1578033 -1.8831071 0.42233
-1.8878696 3.1071062 3.1054974 -1.9891169 0.0007876271 -0.1031307 -3.722497 -4.620507
-2.2803905 3.7556007 3.4713025 2.774679 2.8104162 -2.8605785 2.0026631 -1.5775609
-1.7235837 2.172854 2.5093496 2.4453287 -0.54564303 -4.2380695 1.4819227 -4.4182763

1.bn.running_var f4 [64]
00000000: b9af 4743 e2cf f743 7f7a cf43 a2f3 ea43
00000010: 8448 9743 b8f7 a243 dd98 1144 3bc9 7a44
00000020: 7f66 e543 0e40 2a43 132b 0744 ef31 4743
00000030: ba9c bb43 29f3 e943 016a 4844 2c85 9644
00000040: bec3 aa44 2d00 6f44 6022 8f43 cc8a 5643
00000050: 1e68 9f44 a770 9a43 84ad 4144 6955 a042
00000060: 255f 6343 ed72 0444 adf9 cf43 c32b 3f44
00000070: a9be 0944 a317 9f44 5896 6443 9580 4944
00000080: bae2 f143 c305 9543 7c3d 8843 e9f0 9e42
00000090: c5ed 0244 9045 ba43 8d80 f543 b347 df43
000000a0: e93b c243 7017 aa43 f28a c543 18aa bf43
000000b0: 9ebd d943 9172 e143 c7a4 bc44 7e76 bf44
000000c0: fd46 ec43 76a3 d743 d9c2 5d44 2499 8943
000000d0: 0075 9844 517f 7c44 b550 df43 bada dd43
000000e0: a41b ba43 91a0 9243 10aa 6243 038b 8343
000000f0: 8f49 ef43 279b ba44 ac1b b342 9dab 7a44
199.68642 495.62408 414.957 469.90338 302.56653 325.9353 582.3885 1003.1442
458.80075 170.25021 540.67303 199.19505 375.22443 467.8997 801.6563 1204.1616
1366.117 956.00275 286.26855 214.54218 1275.2537 308.8801 774.7112 80.16682
227.37166 529.7957 415.9506 764.6838 550.97906 1272.7386 228.58728 806.0091
483.7713 298.045 272.48035 79.47053 523.71515 372.54346 491.0043 446.56015
388.46805 340.1831 395.0855 383.32886 435.48138 450.89505 1509.1493 1531.7029
472.5546 431.27704 887.0445 275.1964 1219.6562 1009.9893 446.63052 443.7088
372.21594 293.25443 226.6643 263.08603 478.57468 1492.8485 89.55405 1002.68146

2.weight f4 [2, 64, 1, 1]
00000000: 6060 57be b170 e23d a914 423e 9435 12be
00000010: b5f6 3b3e 2229 3dbe 9c4d 13ba 14b1 c63b
00000020: bf3a b4bd d467 573e 77e9 b4b8 aa97 133e
00000030: ed82 26be 3c51 0bbe 6a01 c23b 17fe cd3b
00000040: aed5 e33a 394c 1dba b83a 2d3e 5cde 09be
00000050: 87bf ffbb 9594 413a 06af 633d 69f9 e93d
00000060: fda6 d8bd c49b fcbd c0ed e6bd b82f b73d
00000070: 3950 9cbd 4a31 58bc 603a 4e3e 1a1f 7d3a
00000080: 0992 eebc 443e b03d 3cee 4bbe ae25 1bbe
00000090: d8f1 62bd e4f0 05be 0398 dbbd 8881 c838
000000a0: 6d08 113e 4ab5 2f3e f0e5 f03d 1ba1 19be
000000b0: 438a dfb8 9b77 baba 320a ff3b 8599 ed3b
000000c0: b2c8 883d 36de 03be 47d1 a7bc 6f04 4f3e
000000d0: afc5 27bc 0809 453b 0655 e33a 866d 07be
000000e0: 95c1 c63d b29c 963b b9d6 20be 9537 a2bd
000000f0: bed9 8939 e238 fb3b 0752 4fbe 4a1e 773a
00000100: 1fa3 a7bd 8a24 5bbd 5cbd 373e 6bc3 56be
00000110: 0025 3fbd 7503 8abd 65d5 3539 0ebb 203c
00000120: 71ce 1cbe 81a6 0abe 9e8e 0bb9 495c 203e
00000130: e061 29bb e4eb dfbd bdcc d93b b327 043c
00000140: c12a 583a b372 203c b244 bbbd 9060 383e
00000150: 9cb3 22bc d948 463b cc4c d63d 8628 623e
00000160: 3582 453e 7745 91bd 83d7 023e d63e a8bc
00000170: f8cb ffbd 5e28 41bc 5b5e 993d 20e7 56b9
00000180: 7c0d 11be e0fc 1ebe 2a29 82bd 9901 5bbe
00000190: ffdf 06be 651c e13d 5ff3 08be d55c e338
000001a0: 6769 eebd 209a 01bd 32dc c4bd 8abb 0c3d
000001b0: ea87 bdb8 b625 6abb 82f2 1a3c 2a88 163c
000001c0: 70e4 e5bd ff54 65be 282d bbbd 2860 a6bb
000001d0: e4c0 83bc 5877 243b 847f 5d3a 02e3 0bbe
000001e0: b968 08be 6642 453e 8dd4 1e3e 6536 463e
000001f0: 7303 d438 ff23 3d3c 29b0 44be b618 f039
-0.21032858 0.110566504 0.18953194 -0.14278251 0.1835583 -0.18472722 -0.00056191697 0.00606359
-0.088002674 0.21035701 -8.626555e-05 0.14413324 -0.16260882 -0.13605207 0.0059205787 0.0062863934
0.0017382407 -0.0006000433 0.1691693 -0.1346373 -0.0078048143 0.0007384506 0.055586837 0.11424524
-0.105787255 -0.123343974 -0.11275816 0.089446485 -0.07632489 -0.013195345 0.20139456 0.00096558186
-0.02912237 0.08605626 -0.19915098 -0.15151092 -0.05540642 -0.13080174 -0.10722353 9.56087e-05
0.1416337 0.17159 0.11762607 -0.15002863 -0.00010659222 -0.0014226319 0.007783198 0.007250967
0.066789046 -0.12877735 -0.020485533 0.20216535 -0.010240003 0.0030065197 0.0017344065 -0.13225374
0.097048916 0.0045963163 -0.1570691 -0.07920758 0.00026292907 0.007666693 -0.20246135 0.00094268157
-0.0818541 -0.053501643 0.17943329 -0.20972984 -0.046666145 -0.067389406 0.00017341001 0.009810222
-0.15313126 -0.13540079 -0.00013309202 0.15660204 -0.0025845692 -0.109336644 0.006646721 0.008066106
0.0008246117 0.009792971 -0.09143962 0.18005586 -0.0099305175 0.0030255823 0.104638666 0.22085771
0.19287951 -0.070933275 0.12777524 -0.020537775 -0.12490076 -0.011789409 0.074887 -0.00020494731
-0.141653 -0.15526152 -0.06355508 -0.21387328 -0.13171385 0.10991744 -0.13374089 0.00010841495
-0.11641198 -0.031641126 -0.096123114 0.03435854 -9.037538e-05 -0.0035728044 0.009457232 0.0091877375
-0.112252116 -0.22395705 -0.09139472 -0.0050773807 -0.016083188 0.0025095548 0.0008449482 -0.13660815
-0.13321199 0.1926361 0.15510769 0.19356687 0.0001010959 0.011544227 -0.19207825 0.00045794778

2.bias f4 [2]
00000000: eb36 223e ad04 323e
0.15841262 0.17384596
