exp_52_ep_106/neck.pt (torch, 576777 bytes, 21 tensors)

in1.conv.weight f4 [64, 256, 1, 1]
-0.013424443 0.17741401 -0.7117976 0.044356138 -0.5255265 0.15452312 -0.5063312 -0.5285221
-0.45483956 -0.11722926 -0.060710445 -0.0030914713 -0.051081236 -0.3688716 -0.039101835 -0.060474258
-0.25037724 -0.32958373 -0.39016497 -0.17354323 -0.05892273 -0.31909117 -0.107418016 -0.09333422
-0.1536216 -0.3312365 -0.30482954 -0.1346501 -0.108924426 -0.5269173 -0.1384936 0.0033318168
-0.16493079 -0.04410249 -0.37470278 -0.008901413 -0.022713922 -0.63708323 -0.05177261 0.12630127
-0.025200889 -0.21279071 -0.20201819 0.13050467 -0.062556766 -0.32767773 0.040950406 -0.40472648
-0.27720094 -0.37571722 -0.22117093 0.19306767 -0.39673153 0.26974833 -0.2596998 -0.16555168
-0.22027293 -0.0430182 -0.01045912 -0.31775993 -0.5402863 -0.13658787 -0.07651153 -0.4172706
-0.29710603 -0.26201925 0.19121546 -0.3846836 -0.1775594 -0.3491533 -0.2661275 -0.45318374
-0.030176425 -0.6688112 -0.20382233 -0.01062687 -0.33935264 0.07316319 0.12410594 -0.08077504
-0.2865451 -0.36825368 -0.18829083 -0.5420999 -0.08640567 0.16292214 -0.38078848 -0.2007059
-0.13734092 0.13822566 -0.10685262 -0.18614115 -0.18520446 0.1728163 -0.056219604 -0.243384
0.035440255 -0.35456294 -0.10115839 -0.07025231 -0.08022314 -0.06472749 0.24116027 -0.28943288
-0.18121576 -0.42508438 0.024904968 -0.5789666 -0.128205 -0.08567862 -0.01331437 -0.2425721
-0.06347831 -0.16231526 -0.09990059 -0.19782613 -0.041751664 -0.3219441 -0.3236133 -0.08138678
-0.4924892 -0.077180356 -0.061285846 -0.6536485 -0.4641424 -0.053537466 -0.42388374 0.13649616
-0.1167965 -0.3577174 -0.2984391 -0.44343498 0.24011257 0.22956683 0.04188356 -0.27159572
-0.4274795 -0.13029042 -0.07970023 0.08118601 0.28585216 -0.51886916 -0.012500761 0.09003413
-0.14797032 -0.4969456 -0.54071504 -0.62055844 -0.41344544 -0.050652992 -0.12401227 0.032090478
-0.39087465 -0.0502855 0.1442657 0.13954759 0.20521805 -0.017676245 -0.019284986 -0.16230027
-0.17084382 -0.062935896 -0.41472462 -0.50189173 -0.30808082 -0.19601221 -0.32576886 -0.008653674
-0.27809972 -0.41505334 0.2194804 -0.30206874 -0.006402105 -0.37480292 -0.3404649 -0.49918926
0.1284181 -0.30463302 -0.09548374 -0.019714557 -0.44048434 -0.12117116 -0.5965204 -0.35429943
0.20870239 -0.47992897 -0.033804167 -0.2858755 -0.10466373 0.027244441 -0.047085777 -0.27585793
-0.23426911 0.14808069 0.37929124 -0.015344925 0.19477895 -0.31999364 -0.4416153 -0.3787775
-0.5448289 -0.48158294 -0.3816447 -0.35139957 -0.34496397 -0.43679053 -0.060353454 -0.39392805
-0.2798713 -0.10102122 -0.40878162 -0.07369195 -0.007647248 -0.014019094 -0.46840405 -0.07135382
0.11725633 -0.28848866 0.20139873 -0.030558081 -0.0013730992 -0.1920556 -0.37584955 -0.3767863
-0.014807746 -0.22917889 -0.41396135 -0.059249904 -0.032534033 -0.097540215 0.0024336774 -0.35250485
-0.38496518 -0.64729726 0.18231323 -0.15408279 -0.33399102 -0.23370464 -0.02912742 -0.1866931
-0.099914245 0.23945987 -0.13255756 -0.61850464 0.049012415 0.20754345 -0.1250236 -0.16570683
0.21157165 -0.010941203 -0.36094564 -0.20224312 0.1557336 -0.3945755 -0.048310567 -0.12458647
00000000: 32f2 5bbc 05ac 353e 5e38 36bf c8ae 353d
00000010: e888 06bf 4f3b 1e3e ec9e 01bf 394d 07bf
00000020: bbe0 e8be e515 f0bd 84ab 78bd 489a 4abb
00000030: 8f3a 51bd bddc bcbe 3f29 20bd dbb3 77bd
00000040: 7231 80be 33bf a8be b4c3 c7be 51b5 31be
00000050: f658 71bd eb5f a3be fafd dbbd 0326 bfbd
00000060: fb4e 1dbe d597 a9be 9e12 9cbe b7e1 09be
00000070: c513 dfbd 0de4 06bf 44d1 0dbe 9c5a 5a3b
00000080: 9ee3 28be d0a4 34bd 0bd9 bfbe 3bd7 11bc
00000090: 8c12 babc e317 23bf 840f 54bd 1f55 013e
000000a0: 1872 cebc cfe5 59be dbdd 4ebe 04a3 053e
000000b0: c31d 80bd 60c5 a7be 9dbb 273d 4f38 cfbe
000000c0: 48ed 8dbe 025e c0be a27a 62be 88b3 453e
000000d0: 6520 cbbe 741c 8a3e 5ff7 84be 6186 29be
000000e0: 3a8f 61be da33 30bd bb5c 2bbc 6eb1 a2be
000000f0: 3450 0abf b1dd 0bbe 14b2 9cbd 7ea4 d5be
00000100: 481e 98be 6327 86be fccd 433e 40f5 c4be
00000110: 22d2 35be 39c4 b2be dd41 88be b307 e8be
00000120: 8d34 f7bc 3637 2bbf cdb6 50be 531c 2ebc
00000130: a1bf adbe 95d6 953d 412b fe3d 626d a5bd
00000140: 0ab6 92be bf8b bcbe 50cf 40be 0fc7 0abf
00000150: 75f5 b0bd 10d5 263e b5f6 c2be d985 4dbe
00000160: 19a3 0cbe 078b 0d3e 8cd5 dabd c99b 3ebe
00000170: 3da6 3dbe c2f6 303e 8746 66bd a839 79be
00000180: cd29 113d 4689 b5be 212c cfbd 71e0 8fbd
00000190: 084c a4bd d98f 84bd b8f2 763e 8c30 94be
000001a0: a090 39be a9a4 d9be 8105 cc3c 2837 14bf
000001b0: 2c48 03be 4678 afbd 8424 5abc d264 78be
000001c0: eb00 82bd f935 26be ae98 ccbd ef92 4abe
000001d0: cb03 2bbd dbd5 a4be a4b0 a5be 1dae a6bd
000001e0: 8b27 fcbe bc10 9ebd de06 7bbd 8255 27bf
000001f0: 13a4 edbe 1a4a 5bbd 4a07 d9be a6c5 0b3e
00000200: 0133 efbd bc26 b7be 02cd 98be e909 e3be
00000210: 12e0 753e 9113 6b3e 198e 2b3d 980e 8bbe
00000220: 98de dabe da6a 05be e039 a3bd da44 a63d
00000230: 375b 923e 9cd4 04bf fecf 4cbc d063 b83d
00000240: 8885 17be a76f febe 4d6c 0abf ebdc 1ebf
00000250: 1faf d3be 8379 4fbd 25fa fdbd 4e71 033d
00000260: b920 c8be 2bf8 4dbd 63ba 133e 90e5 0e3e
00000270: ae24 523e c6cd 90bc 8cfb 9dbc 0b32 26be
00000280: aff1 2ebe 89e4 80bd c956 d4be fa7b 00bf
00000290: c5bc 9dbe 6db7 48be 2dcb a6be 24c8 0dbc
000002a0: 1663 8ebe df81 d4be 78bf 603e c1a8 9abe
000002b0: c0c8 d1bb 2be6 bfbe 6a51 aebe bc95 ffbe
000002c0: 0980 033e dcf8 9bbe fb8c c3bd 6c80 a1bc
000002d0: 2a87 e1be 9628 f8bd 90b5 18bf bc66 b5be
000002e0: 14b6 553e 40b9 f5be 3d76 0abd 465e 92be
000002f0: f059 d6bd bc2f df3c 04dd 40bd 403d 8dbe
00000300: 3ee4 6fbe 77a2 173e 7632 c23e 4869 7bbc
00000310: 2274 473e 35d6 a3be 671b e2be 20ef c1be
00000320: e879 0bbf 0a92 f6be ef66 c3be a5ea b3be
00000330: 1e9f b0be 02a3 dfbe 2f35 77bd f0b0 c9be
00000340: 4b4b 8fbe 37e4 cebd d34b d1be ceeb 96bd
00000350: c495 fabb 58b0 65bc a8d2 efbe f421 92bd
00000360: 1624 f03d c9b4 93be 783b 4e3e f154 fabc
00000370: 90f9 b3ba 39aa 44be 5a6f c0be 22ea c0be
00000380: 309c 72bc dfad 6abe bef2 d3be 07b0 72bd
00000390: 6842 05bd 2ac3 c7bd 557e 1f3b 847b b4be
000003a0: 281a c5be 46b5 25bf 52b0 3a3e e1c7 1dbe
000003b0: df00 abbe 4550 6fbe a19c eebc 7a2c 3fbe
000003c0: d79f ccbd f834 753e 2bbd 07be 5256 1ebf
000003d0: 3ec1 483d 4586 543e 3006 00be 0daf 29be
000003e0: 3da6 583e bb42 33bc decd b8be d218 4fbe
000003f0: a178 1f3e cd05 cabe 4de1 45bd 3127 ffbd

in1.bn.weight f4 [64]
0.39537796 0.29152265 0.30453596 0.31818247 0.38241392 0.301886 0.46203315 0.37670597
0.38835135 0.46880266 0.4783584 0.3795114 0.46174347 0.076401144 0.09581005 0.18129809
0.29181448 0.38548416 0.65149665 0.24148476 0.18895733 0.45860943 -0.024184767 0.23551875
0.030345336 0.41286787 0.09981295 0.44866496 0.40389556 -0.01037321 0.082973294 0.08534627
0.47753793 0.08305803 0.27567074 0.5178204 0.2020856 0.49640188 0.47423667 0.46308792
0.021029187 0.4112648 0.064235166 0.7616354 0.11946751 0.32358587 0.11676918 0.3442454
0.44439244 0.059095837 0.025538107 0.7553424 -0.017739933 0.50240165 0.07500568 0.41879475
0.3327775 0.49187902 0.4800101 0.16395724 0.51157445 0.24031523 0.118645884 0.44132072
00000000: fb6e ca3e 7542 953e 23ec 9b3e d0e8 a23e
00000010: c2cb c33e cd90 9a3e 9c8f ec3e 9bdf c03e
00000020: fdd5 c63e e706 f03e 64eb f43e 514f c23e
00000030: a469 ec3e 3478 9c3d 0f38 c43d 35a6 393e
00000040: b568 953e 2e5e c53e 7cc8 263f c847 773e
00000050: 087e 413e dbce ea3e 221f c6bc d42b 713e
00000060: c896 f83c 6b63 d33e bb6a cc3d 6ab7 e53e
00000070: 66cb ce3e 65f4 29bc e7ed a93d 06ca ae3d
00000080: da7f f43e 541a aa3d b724 8d3e e18f 043f
00000090: 87ef 4e3e 6328 fe3e 26cf f23e dc19 ed3e
000000a0: 6745 ac3c 4d91 d23e ba8d 833d 8afa 423f
000000b0: 62ab f43d 0cad a53e ae24 ef3d ef40 b03e
000000c0: 6887 e33e 7a0e 723d 4b35 d13c 1f5e 413f
000000d0: 5653 91bc 659d 003f 949c 993d 446c d63e
000000e0: d061 aa3e 91d7 fb3e e2c3 f53e 68e4 273e
000000f0: 8bf6 023f 3215 763e 9dfc f23d caf4 e13e

in1.bn.bias f4 [64]
0.09504793 -0.34710586 -0.25397944 0.16123757 -0.044800553 -0.16381419 0.14004198 0.17700452
0.05196869 -0.24660607 0.12958816 0.113507286 -0.10678057 -0.10544618 -0.32332757 -0.28311864
-0.065876946 -0.017404158 0.3414203 -0.3567002 -0.34917417 0.07970285 -0.004037883 -0.11734411
-0.03620565 -0.10030657 -0.103342 -0.26427004 -0.017063925 0.006059708 -0.03752392 -0.09999417
-0.24913365 -0.07986265 -0.18227538 -0.022220716 -0.1774769 -0.2767374 -0.22739965 0.12051411
-0.005641512 0.18138248 -0.07250333 0.19104283 -0.0020698996 0.046229646 -0.25770435 0.11401833
0.23858117 -0.066049546 -0.030563753 0.3184252 -0.0018996918 -0.10190318 -0.08176665 0.0851522
0.093073934 -0.26711583 0.14601377 -0.2806457 -0.25741756 -0.13385862 -0.10062978 -0.1853498
00000000: 7da8 c23d dcb7 b1be 9809 82be 761b 253e
00000010: c980 37bd e8be 27be 2a67 0f3e ac40 353e
00000020: 1fdd 543d 4d86 7cbe c2b2 043e 8276 e83d
00000030: c5af dabd 2bf4 d7bd 318b a5be edf4 90be
00000040: 7eea 86bd 2a93 8ebc a4ce ae3e 69a1 b6be
00000050: f5c6 b2be 3f3b a33d 3850 84bb 1c52 f0bd
00000060: 604c 14bd 886d cdbd f8a4 d3bd 674e 87be
00000070: a5c9 8bbc 8490 c63b afb2 19bd bec9 ccbd
00000080: e41c 7fbe 078f a3bd 66a6 3abe 3808 b6bc
00000090: 81bc 35be 86b0 8dbe 74db 68be 1ad0 f63d
000000a0: 6fdc b8bb 54bc 393e a07c 94bd bba0 433e
000000b0: 27a7 07bb 4c5b 3d3d d3f1 83be 7182 e93d
000000c0: 9f4e 743e fc44 87bd d660 fabc a108 a33e
000000d0: 14ff f8ba 9db2 d0bd 4675 a7bd 4764 ae3d
000000e0: 8c9d be3d 68c3 88be a284 153e cbb0 8fbe
000000f0: 3ccc 83be 3c12 09be fc16 cebd 57cc 3dbe

in1.bn.running_mean f4 [64]
2.5834036 0.8323306 0.60711455 1.4458876 0.39334407 2.578135 1.2595679 1.8418483
1.928793 2.651388 2.8548725 1.4948791 -0.13400798 1.522108 -1.3074607 -0.71236664
2.1266863 2.5958886 2.9447129 0.3058221 0.1717029 1.8738126 0.4187526 5.6127386
3.109533 1.1616936 1.9189019 2.886089 0.97210646 -6.6877975 2.7437565 1.6910561
0.43766114 2.2256205 -0.16572343 1.1531961 -0.30808428 0.5529235 -0.11404606 2.0434947
1.7797813 1.6580397 2.3641367 0.6628163 2.7825735 2.9254034 -5.357705 1.2354503
2.1839788 1.9323924 1.8579195 1.9918187 1.9814353 -0.059385076 1.3971962 1.839818
1.6454108 0.55653906 1.3367882 -0.111097336 0.36351046 0.4341017 -0.60944396 2.6363642
00000000: 7c56 2540 9e13 553f dc6b 1b3f d812 b93f
00000010: 6564 c93e 2a00 2540 8539 a13f afc1 eb3f
00000020: b0e2 f63f 57b0 2940 3bb6 3640 3358 bf3f
00000030: 6339 09be 6fd4 c23f df5a a7bf a95d 36bf
00000040: a11b 0840 0a23 2640 2d76 3c40 b794 9c3e
00000050: e3d2 2f3e 17d9 ef3f be66 d63e 8e9b b340
00000060: 9702 4740 60b2 943f 949e f53f afb5 3840
00000070: f8db 783f 7002 d6c0 b599 2f40 8774 d83f
00000080: 1f15 e03e 9170 0e40 67b3 29be ee9b 933f
00000090: 39bd 9dbe 658c 0d3f fb90 e9bd 9ec8 0240
000000a0: e0cf e33f a53a d43f 044e 1740 54ae 293f
000000b0: af15 3240 cf39 3b40 5272 abc0 3c23 9e3f
000000c0: 4fc6 0b40 a258 f73f 4ed0 ed3f eaf3 fe3f
000000d0: ac9f fd3f c43d 73bd 53d7 b23f 287f eb3f
000000e0: d29c d23f 5879 0e3f e01b ab3f 0087 e3bd
000000f0: 0b1e ba3e 9442 de3e 8504 1cbf 31ba 2840

in1.bn.running_var f4 [64]
109.691124 10.528255 57.95952 44.751553 10.173523 46.75312 101.72021 84.837685
102.20791 88.00046 39.28735 89.561775 23.034853 22.105019 13.907956 50.239956
73.06389 125.98362 17.88652 14.728622 22.824207 49.573368 6.4262443 148.69337
18.79706 45.642128 27.13757 94.19403 20.763971 9.102118 26.004549 27.46689
62.86525 27.391415 62.116276 11.924199 54.57794 50.60688 51.24437 53.76966
11.010779 75.1871 27.870066 16.199976 30.765907 112.06588 26.797606 79.831314
72.622 27.520435 6.6286354 16.464817 4.9892297 23.926744 25.588945 85.374985
75.145615 54.26845 60.507587 40.861732 54.04299 26.463467 15.112192 88.65601
00000000: db61 db42 bc73 2841 8cd6 6742 9701 3342
00000010: c0c6 2241 3203 3b42 bf70 cb42 e5ac a942
00000020: 736a cc42 3c00 b042 3f26 1d42 a11f b342
00000030: 6147 b841 14d7 b041 fd86 5e41 b7f5 4842
00000040: b620 9242 9df7 fb42 9817 8f41 70a8 6b41
00000050: fa97 b641 214b 4642 cba3 cd40 81b1 1443
00000060: 6160 9641 8a91 3642 be19 d941 5863 bc42
00000070: 9d1c a641 46a2 1141 5109 d041 31bc db41
00000080: 0476 7b42 9e21 db41 1177 7842 85c9 3e41
00000090: d04f 5a42 726d 4a42 3cfa 4c42 2214 5742
000000a0: 272c 3041 cc5f 9642 e5f5 de41 8d99 8141
000000b0: 9420 f641 bb21 e042 7f61 d641 a2a9 9f42
000000c0: 773e 9142 da29 dc41 c81d d440 f2b7 8341
000000d0: c5a7 9f40 f969 bf41 29b6 cc41 febf aa42
000000e0: 8e4a 9642 e512 5942 c507 7242 6a72 2342
000000f0: 062c 5842 2eb5 d341 8acb 7141 e14f b142

in2.conv.weight f4 [64, 128, 1, 1]
0.14308766 0.26794815 0.1990825 0.1209554 0.12241544 0.23479447 0.084707886 0.19833015
0.07393289 0.11541539 0.12683393 0.08921479 0.11669467 0.09996428 0.034041133 0.091366686
0.16756135 0.15485755 0.08820167 0.16180192 0.21227583 0.11634558 0.13108373 0.16034724
0.14040422 0.09332993 0.18803945 0.07689716 0.25895983 0.19260661 0.20640887 0.1249367
0.18947794 0.07430885 0.12053688 0.25951037 0.14384177 0.23348542 0.2144692 0.05635785
0.19303843 0.15080114 0.19472912 0.063300654 0.09520772 0.099545114 0.2477381 0.12181424
0.04511791 0.06246007 0.115748346 0.04841218 0.038149003 0.0014591034 0.08048107 -0.002305878
0.30341497 -0.0013091426 0.44426492 0.20987566 0.050523058 0.11146703 0.13670708 0.23359932
0.07064881 -0.022623895 0.17198199 0.11673812 0.18747617 0.29024267 0.11649035 0.09373918
0.19586043 0.21414268 0.30922467 0.13312332 0.11354935 0.086552985 0.12938869 0.115422055
0.08941543 0.14681956 0.087526895 0.088091746 0.32010588 0.4105586 0.088539496 0.09688715
0.0075439755 0.13958232 0.089574814 0.12520596 0.08754278 0.15793599 0.26875496 -0.08005193
0.11986442 0.13279821 0.07593578 0.2102657 0.14260057 0.27838397 0.056173757 0.08869523
0.13882731 0.15272328 0.0521764 0.40908378 0.045044925 0.13937129 0.06747768 0.057685357
0.18217991 0.11406392 0.066983975 0.063816495 0.2031492 0.11884207 0.44206795 0.10393779
0.15068348 0.079958186 0.13654488 0.08210413 0.09783324 0.09362428 0.019095756 0.33347043
0.075282514 -0.35027006 -0.04791114 -0.14032811 -0.05611846 -0.14141054 -0.022401307 -0.059734706
-0.038457908 -0.0743715 0.09360641 -0.2371483 0.090905085 -0.123360164 -0.027857063 -0.09611069
-0.07174707 -0.17716192 -0.010541426 -0.21597913 -0.16211833 -0.08935357 -0.16674127 -0.2036933
-0.12696217 0.085748814 -0.03442806 -0.023664312 -0.22871448 -0.13016501 -0.16020449 -0.1604771
-0.13563776 -0.06796648 -0.07986974 -0.16493903 0.06844469 -0.3352825 0.09429699 -0.036953464
0.100845404 -0.09877474 -0.2743787 -0.06521025 -0.13471167 -0.13115627 -0.28448075 -0.16255125
-0.07730589 0.014827506 -0.042091817 -0.09275673 0.011121087 -0.00044870996 -0.24277332 -0.24983934
-0.06861347 -0.008509572 -0.17414676 -0.5661899 0.15196495 0.0843929 -0.13707663 -0.3841995
-0.0530021 0.0015060576 0.10366199 -0.23306397 -0.19626889 -0.12068648 -0.18473092 -0.15912542
-0.22722943 -0.28158543 -0.32567587 -0.22672017 -0.21531618 -0.21477735 -0.14999612 0.16384563
-0.16787744 -0.20924912 0.17415173 -0.06484862 -0.3163123 -0.37718812 -0.10755025 -0.097022854
-0.02826813 -0.14746456 -0.15776052 -0.019856287 -0.16732427 -0.16915067 -0.22890893 0.049942333
0.19534874 -0.2099859 -0.17856698 -0.17671917 -0.17753904 -0.1904904 -0.010285858 -0.114189535
-0.18056345 0.0041447924 0.14226454 -0.5108572 -0.051812187 -0.16654758 -0.20833023 -0.09232356
-0.12066688 -0.2084929 0.0040984093 0.251476 -0.07151403 -0.19695047 -0.0047467765 0.18658818
-0.13366653 -0.16455655 -0.15296717 -0.19113135 -0.12496442 -0.15788347 -0.10064704 -0.26450267
00000000: 9285 123e 8030 893e 48dc 4b3e 77b7 f73d
00000010: f2b4 fa3d f66d 703e 547b ad3d 0f17 4b3e
00000020: 216a 973d e75e ec3d c1e0 013e 3eb6 b63d
00000030: 9dfd ee3d 13ba cc3d b76e 0b3d 751e bb3d
00000040: 3495 2b3e fa92 1e3e 14a3 b43d 67af 253e
00000050: d65e 593e 9746 ee3d d03a 063e 1132 243e
00000060: 20c6 0f3e c323 bf3d 6a8d 403e 427c 9d3d
00000070: 6296 843e ab3a 453e d95c 533e d0de ff3d
00000080: 8106 423e 3d2f 983d 0adc f63d 8bde 843e
00000090: 424b 133e cd16 6f3e d09d 5b3e 7dd7 663d
000000a0: deab 453e 9d6b 1a3e 1267 473e c6a3 813d
000000b0: 44fc c23d 4fde cb3d 0eaf 7d3e bf79 f93d
000000c0: 8fcd 383d 21d6 7f3d 780d ed3d da4b 463d
000000d0: 2142 1c3d 633f bf3a 42d3 a43d 371e 17bb
000000e0: 3559 9b3e 8997 abba b176 e33e a5e9 563e
000000f0: 44f1 4e3d d448 e43d f1fc 0b3e a934 6f3e
00000100: 53b0 903d bf55 b9bc 0c1c 303e 6514 ef3d
00000110: c1f9 3f3e b09a 943e 7e92 ee3d 54fa bf3d
00000120: a38f 483e 3848 5b3e b252 9e3e 7b51 083e
00000130: 908c e83d b142 b13d 787e 043e 6662 ec3d
00000140: 701f b73d de57 163e 4d41 b33d 7269 b43d
00000150: ebe4 a33e bd34 d23e 3254 b53d c56c c63d
00000160: 7433 f73b abee 0e3e 0073 b73d fe35 003e
00000170: a149 b33d f9b9 213e 409a 893e 44f2 a3bd
00000180: 7a7b f53d 41fc 073e 3884 9b3d e44f 573e
00000190: e205 123e 5888 8e3e 7416 663d d8a5 b53d
000001a0: bf28 0e3e 7e63 1c3e ecb6 553d 6e73 d13e
000001b0: 0781 383d 59b7 0e3e bd31 8a3d 7b47 6c3d
000001c0: 5f8d 3a3e 589a e93d e52e 893d 39b2 823d
000001d0: 5806 503e 7963 f33d bb56 e23e 56dd d43d
000001e0: c54c 1a3e 1ec1 a33d 6cd2 0b3e 3626 a83d
000001f0: cb5c c83d 16be bf3d b46e 9c3c a3bc aa3e
00000200: b82d 9a3d 9956 b3be 793e 44bd 2cb2 0fbe
00000210: 78dc 65bd edcd 10be f282 b7bc 61ac 74bd
00000220: 0a86 1dbd 1650 98bd b8b4 bf3d 01d7 72be
00000230: 722c ba3d 41a4 fcbd 7f34 e4bc aed5 c4bd
00000240: 21f0 92bd ef69 35be f2b5 2cbc a229 5dbe
00000250: 5902 26be 01ff b6bd 39be 2abe fa94 50be
00000260: 5f02 02be 139d af3d 7004 0dbd a9db c1bc
00000270: 2134 6abe fa49 05be a50c 24be 1c54 24be
00000280: a0e4 0abe 0332 8bbd bf92 a3bd c7e5 28be
00000290: bb2c 8c3d 26aa abbe c81e c13d 845c 17bd
000002a0: 0988 ce3d 694a cabd 5d7b 8cbe f48c 85bd
000002b0: dbf1 09be d44d 06be 76a7 91be d673 26be
000002c0: 8d52 9ebd 11ef 723c 7868 2cbd 3ef7 bdbd
000002d0: 3835 363c d540 ebb9 9299 78be e2d5 7fbe
000002e0: 3885 8cbd bb6b 0bbc 8753 32be d2f1 10bf
000002f0: b39c 1b3e 2fd6 ac3d d15d 0cbe ccb5 c4be
00000300: bb18 59bd e866 c53a bd4c d43d 52a8 6ebe
00000310: b6fa 48be 792a f7bd 1a2a 3dbe c6f1 22be
00000320: d5ae 68be f72b 90be fdbe a6be 5529 68be
00000330: d87b 5cbe 98ee 5bbe 9598 19be 26c7 273e
00000340: 10e8 2bbe 6745 56be d554 323e 5acf 84bd
00000350: b0f3 a1be cd1e c1be 4e43 dcbd ebb3 c6bd
00000360: 9192 e7bc f300 17be f98b 21be a7a9 a2bc
00000370: 0e57 2bbe d535 2dbe 1a67 6abe 5590 4c3d
00000380: 8009 483e 8b06 57be 43da 36be dff5 34be
00000390: cbcc 35be ea0f 43be 0486 28bc 34dc e9bd
000003a0: a0e5 38be 0ad1 873b ccad 113e 8ac7 02bf
000003b0: 0439 54bd 738b 2abe 8554 55be 2214 bdbd
000003c0: 3220 f7bd 2a7f 55be f34b 863b 76c1 803e
000003d0: f375 92bd 62ad 49be d98a 9bbb f910 3f3e
000003e0: e1df 08be 8381 28be 6da3 1cbe f0b7 43be
000003f0: 59ed ffbd 34ac 21be 0920 cebd e56c 87be

in2.bn.weight f4 [64]
-0.0768371 -0.17775539 0.0062056794 0.05244434 -0.047307532 0.05898793 0.25943372 0.17444456
0.06982419 -0.07181154 0.15986182 0.38103497 0.37993073 0.52025867 0.24411257 0.20478152
0.37707677 0.10021771 0.01743587 0.16498378 0.3086648 0.18490466 0.48328948 0.15350471
0.43423146 0.004690773 0.06214598 0.393539 0.49549064 0.054641776 0.06648681 -0.014702913
0.23584291 0.046802837 0.52517086 0.0022896444 0.119768836 0.04208405 0.26913828 0.28235337
0.36483887 0.010341814 0.068875276 0.14561304 0.21136567 0.05200244 -0.0242355 0.3075499
0.054916874 0.052965656 -0.025381569 0.2427338 -0.023472494 -0.017990315 -0.06596394 0.08640248
0.07362729 0.014162958 0.07755023 0.07976467 0.06681658 -0.049072765 -0.040546793 0.039520673
00000000: c55c 9dbd 8205 36be 0359 cb3b e0cf 563d
00000010: 8bc5 41bd 549d 713d 7fd4 843e 98a1 323e
00000020: fcff 8e3d ee11 93bd d1b2 233e 0417 c33e
00000030: 4886 c23e ac2f 053f a5f8 793e 3fb2 513e
00000040: 3510 c13e f13e cd3d abd5 8e3c 82f1 283e
00000050: 5009 9e3e a657 3d3e b871 f73e 5730 1d3e
00000060: 9653 de3e 0eb5 993b c88c 7e3d f27d c93e
00000070: f3b0 fd3e 0ed0 5f3d 3d2a 883d 7de4 70bc
00000080: ce80 713e 55b4 3f3d 9971 063f dc0d 163b
00000090: 5d49 f53d 5360 2c3d 7ecc 893e 9f90 903e
000000a0: 29cc ba3e b670 293c 7b0e 8d3d 961b 153e
000000b0: 3e70 583e 8300 553d 8789 c6bc 2e77 9d3e
000000c0: 84f0 603d 84f2 583d 02ed cfbc 368f 783e
000000d0: 6349 c0bc 6d60 93bc 1a18 87bd c9f3 b03d
000000e0: e8c9 963d c00b 683c a8d2 9e3d a95b a33d
000000f0: 22d7 883d 8600 49bd 6514 26bd 6ee0 213d

in2.bn.bias f4 [64]
-0.068524614 0.07166147 -0.0045016273 -0.07987233 -0.0561517 -0.07871696 0.058716003 -0.2288274
-0.10149467 -0.08936016 -0.026889957 0.0134723475 0.11900387 0.078457035 -0.01510665 0.0075771715
0.028727068 -0.05351723 0.0102890115 -0.05732577 -0.11788807 -0.23223905 -0.04485341 0.09668129
0.1434386 -0.002316087 -0.08018129 0.01640259 0.061552346 -0.054140054 0.07153212 -0.04715439
-0.21319523 0.08544233 -0.014471616 0.008936581 -0.1299212 0.0859185 -0.018607149 -0.2193306
0.026945053 -0.016747167 -0.04685326 0.09327442 -0.077868216 0.070123434 0.013644427 -0.029139372
-0.005207174 0.09127579 -0.019775065 -0.06726518 0.030723471 0.065065116 0.033197988 -0.024879016
-0.046046823 0.04222411 0.008164505 -0.139161 0.07731081 0.03629768 -0.042673077 -0.0027963615
00000000: a256 8cbd 40c3 923d 6382 93bb 1b94 a3bd
00000010: 53ff 65bd 5c36 a1bd 3180 703d bb51 6abe
00000020: 70dc cfbd 7602 b7bd 5448 dcbc 1fbb 5c3c
00000030: 4db8 f33d 15ae a03d e281 77bc ec49 f83b
00000040: 0755 eb3c e234 5bbd 3e93 283c 6dce 6abd
00000050: 4d6f f1bd 13d0 6dbe 36b8 37bd d700 c63d
00000060: 91e1 123e 7ec9 17bb 1736 a4bd b95e 863c
00000070: 501e 7c3d f6c1 5dbd 6f7f 923d f624 41bd
00000080: da4f 5abe 63fc ae3d 5b1a 6dbc bd6a 123c
00000090: 100a 05be 0af6 af3d 056e 98bc 3398 60be
000000a0: dfbb dc3c 5b31 89bc 34e9 3fbd a906 bf3d
000000b0: 5f79 9fbd e09c 8f3d e08c 5f3c b1b5 eebc
000000c0: f1a0 aabb cdee ba3d 51ff a1bc 54c2 89bd
000000d0: caaf fb3c dc40 853d 9dfa 073d 14cf cbbc
000000e0: 989b 3cbd 30f3 2c3d 6ac4 053c 3980 0ebe
000000f0: 2155 9e3d e0ac 143d f7c9 2ebd 2943 37bb

in2.bn.running_mean f4 [64]
1.0665716 -1.3617544 -0.66509604 -0.3694461 -0.3729921 -0.09594587 -0.94281256 1.7271492
-1.3355374 0.28525242 -1.0150018 0.33338642 -1.0404385 0.97154063 -1.4305142 -0.72885686
0.16295376 -1.5988454 1.0109512 0.23188074 0.73824674 1.6999247 0.48764586 0.6753848
-1.3620123 -0.8867987 -0.091455 0.20915699 0.79042447 -0.6920009 -1.3077493 0.5172623
-0.23666635 -0.6602287 0.47891262 -0.91211545 -1.1086229 -0.09265553 -0.18818316 0.6260945
-0.049004797 -0.92540103 -0.80658704 0.48571718 0.62909436 -1.1144378 -0.02226643 -0.30366728
-1.199174 -0.08246476 -0.22283675 0.26274055 -0.05380438 0.12541217 -0.9808586 -1.4120141
-1.2157154 1.182023 -0.31776008 -0.5724903 0.25075138 -1.4614681 0.5089352 -1.2119691
00000000: 6b85 883f f84d aebf bc43 2abf 0a28 bdbe
00000010: d2f8 bebe 457f c4bd 2a5c 71bf 3a13 dd3f
00000020: e4f2 aabf 9b0c 923e 94eb 81bf a0b1 aa3e
00000030: 172d 85bf e3b6 783f 171b b7bf 5d96 3abf
00000040: 5add 263e f7a6 ccbf d966 813f 2572 6d3e
00000050: bdfd 3c3f 2297 d93f b8ac f93e 05e6 2c3f
00000060: 6b56 aebf 3d05 63bf c24c bbbd 402d 563e
00000070: 4259 4a3f f926 31bf 5464 a7bf 4d6b 043f
00000080: aa58 72be c004 29bf 0934 f53e 6680 69bf
00000090: 5be7 8dbf 2fc2 bdbd 16b3 40be bb47 203f
000000a0: 41b9 48bd 15e7 6cbf 7d7c 4ebf ecaf f83e
000000b0: 540c 213f e6a5 8ebf 1768 b6bc 477a 9bbe
000000c0: 897e 99bf 49e3 a8bd 512f 64be ee85 863e
000000d0: fb61 5cbd 0c6c 003e 8d19 7bbf e1bc b4bf
000000e0: 909c 9bbf 884c 973f 73b1 a2be b98e 12bf
000000f0: 7c62 803e 6311 bbbf 9449 023f ce21 9bbf

in2.bn.running_var f4 [64]
9.750425 3.849832 5.1997952 14.782272 10.67515 4.2612476 27.034838 10.064031
17.206167 6.1124296 23.70389 32.651752 17.66959 26.990826 24.387093 27.407967
32.81049 10.034796 7.0476484 24.425285 16.843884 8.758206 20.10403 6.718091
32.87774 4.29316 5.0523825 33.77478 29.861855 7.380387 8.555107 3.6109304
7.2755933 12.998559 30.386751 7.413071 22.530867 10.10789 35.155464 14.935504
34.45282 3.2398624 7.579753 18.187504 14.17091 8.425963 9.835622 37.163124
12.110881 16.428759 5.489976 22.54119 16.094473 10.924038 3.2968214 11.600832
4.8298626 5.912637 24.962782 4.9520764 7.318785 6.4375544 6.5689054 23.398972
00000000: be01 1c41 a663 7640 b964 a640 3084 6c41
00000010: 6acd 2a41 245c 8840 5947 d841 4506 2141
00000020: 3ba6 8941 0699 c340 91a1 bd41 659b 0242
00000030: 525b 8d41 36ed d741 c418 c341 8443 db41
00000040: f13d 0342 868e 2041 5686 e140 fc66 c341
00000050: 46c0 8641 9d21 0c41 0ed5 a041 9afa d640
00000060: ce82 0342 9161 8940 1ead a140 6019 0742
00000070: 14e5 ee41 212c ec40 b8e1 0841 7c19 6740
00000080: a9d1 e840 19fa 4f41 1118 f341 e137 ed40
00000090: 373f b441 ebb9 2141 329f 0c42 d3f7 6e41
000000a0: b0cf 0942 e859 4f40 568d f240 0280 9141
000000b0: 0cbc 6241 bfd0 0641 b55e 1d41 0aa7 1442
000000c0: 2bc6 4141 196e 8341 e2ad af40 5b54 b441
000000d0: 7bc1 8041 dcc8 2e41 1fff 5240 029d 3941
000000e0: 3c8e 9a40 5334 bd40 c7b3 c741 6977 9e40
000000f0: 7d33 ea40 7200 ce40 7934 d240 1831 bb41

in3.conv.weight f4 [64, 64, 1, 1]
-0.21804646 0.07940687 0.2124303 -0.23228255 0.1820498 -0.23152995 -0.4187265 -0.045123152
0.26999775 0.29112387 -0.22235356 0.023164244 -0.13721193 -0.010552043 0.047211017 0.07534395
-0.00038894106 -0.24947287 -0.11385446 0.029695366 -0.06108086 -0.022033764 -0.09971895 0.12223113
-0.06059836 0.36682028 0.05244712 0.36936972 -0.0016344222 0.1555601 0.2428775 0.1520385
0.2857832 0.34845516 -0.12923694 -0.15564497 -0.36462417 -0.1738426 -0.28912643 -0.05432945
0.055121437 -0.052334584 -0.07647875 0.0140234865 0.3561885 0.36310333 0.2852691 0.1009713
-0.21284829 -0.31679913 -0.34115145 0.24170114 -0.24416281 0.18326464 -0.028764213 0.12655933
-0.27000397 -0.18383059 -0.07443225 0.26937896 -0.19550319 -0.16582316 -0.20251077 0.24968071
-0.22604299 -0.10936767 0.050237823 -0.19532779 0.11070695 -0.14587165 -0.42567816 0.10284731
0.07000797 0.14372775 -0.21032064 -0.14067905 -0.14620104 0.13859226 0.027657082 -0.07841645
0.01698397 -0.25534055 0.12163709 -0.15469934 -0.09064116 -0.10681986 0.017142178 0.05464257
-0.012993009 0.23476224 0.12203787 0.22367728 -0.083542354 0.06745956 0.12805492 0.10048561
0.086970575 0.20576464 -0.07496613 0.059973728 -0.42627138 -0.17397282 -0.29302365 -0.035497323
-0.03451373 -0.00062411244 -0.030649552 -0.092854045 0.19989792 0.17793912 0.13661213 0.048799742
-0.14689286 -0.40295902 -0.30802864 0.20661244 -0.17395516 -0.016684977 -0.019513832 -0.12078313
-0.27190983 -0.28401482 -0.035828188 0.19202113 -0.24554248 -0.02532809 -0.05883174 0.16302177
-0.20943986 0.13736944 0.12002168 -0.27482846 0.026420454 -0.15212639 -0.2500443 -0.06938845
0.14400378 0.14110789 -0.10829586 0.092657305 -0.092024036 -0.11265163 -0.0067623537 0.12061541
-0.02306173 -0.20336236 -0.16206872 0.01340377 -0.21847025 -0.067078575 -0.08706166 0.13269542
-0.10347816 0.12641352 0.094377026 0.2673792 0.17179795 0.026896534 0.13471705 0.07292686
0.42987746 0.107434094 -0.12531441 -0.18789108 -0.24375473 -0.09716751 -0.19826496 -0.16305946
0.065734774 -0.0749328 0.0017328963 0.015698422 0.15850437 0.31875268 0.30934152 0.057924893
-0.1913461 -0.29694498 -0.19348311 0.095194645 -0.16696034 0.02004069 -0.07256261 0.17313413
-0.35082573 -0.19632474 0.07690191 0.21027464 0.0129900575 -0.33621824 -0.31466854 0.10134794
-0.17532618 0.068190664 0.058159444 0.4011989 -0.014092037 -0.17509778 -0.2547211 -0.045069117
-0.18112575 -0.2979726 0.39525148 0.031120293 -0.05088383 -0.04563834 0.0092673255 0.067982726
0.07420502 -0.14584935 -0.32771793 0.06741254 -0.08945885 0.030572927 -0.043512445 -0.01698578
-0.08668564 -0.047648367 -0.22271818 -0.1800362 0.033206522 0.059558164 -0.1383978 -0.07914004
-0.0629538 -0.18306465 -0.094239116 -0.14335823 -0.11867288 0.44254434 -0.07298758 0.009656707
0.0046164696 -0.076302655 -0.054795906 0.045571383 -0.2233838 0.018531635 0.021422254 0.058509693
-0.02019003 -0.12625702 0.0073492676 -0.1422108 -0.0958069 -0.0787178 -0.11760856 -0.0052713165
-0.089733966 -0.1624663 -0.05501286 -0.20638195 0.3114475 0.27490354 0.27231157 -0.079306886
00000000: 9247 5fbe 12a0 a23d 5487 593e 7adb 6dbe
00000010: 436b 3a3e 3016 6dbe 5263 d6be 0ed3 38bd
00000020: 253d 8a3e 300e 953e a7b0 63be f1c2 bd3c
00000030: 4981 0cbe 7ae2 2cbc 5760 413d ee4d 9a3d
00000040: c9ea cbb9 d175 7fbe 872c e9bd b243 f33c
00000050: ed2f 7abd 2780 b4bc 7339 ccbd 5154 fa3d
00000060: fc35 78bd decf bb3e cbd2 563d 071e bd3e
00000070: 1c3a d6ba 264b 1f3e e1b4 783e fbaf 1b3e
00000080: 2d52 923e b768 b23e b056 04be 6561 1fbe
00000090: 05b0 babe cb03 32be 6108 94be 8f88 5ebd
000000a0: 04c7 613d ca5c 56bd e4a0 9cbd c4c2 653c
000000b0: 575e b63e aee8 b93e cb0e 923e 0aca ce3d
000000c0: e7f4 59be 7f33 a2be 67ab aebe 8180 773e
000000d0: d105 7abe baa9 3b3e eda2 ebbc c598 013e
000000e0: f63d 8abe 163e 3cbe ef6f 98bd 0aec 893e
000000f0: fd31 48be 8ccd 29be fc5e 4fbe 4dac 7f3e
00000100: d077 67be 28fc dfbd 2dc6 4d3d 0204 48be
00000110: 53ba e23d 615f 15be 7df2 d9be 9ca1 d23d
00000120: 5760 8f3d 5e2d 133e 4b5e 57be 2b0e 10be
00000130: bab5 15be 21eb 0d3e 1b91 e23c ce98 a0bd
00000140: f721 8b3c ffbb 82be de1c f93d 8169 1ebe
00000150: 13a2 b9bd 5fc4 dabd c16d 8c3c e3d0 5f3d
00000160: a1e0 54bc 8365 703e feee f93d a80b 653e
00000170: 4118 abbd 3d28 8a3d d420 033e 66cb cd3d
00000180: a11d b23d f7b3 523e d887 99bd 03a7 753d
00000190: 3e40 dabe ee25 32be 3207 96be a465 11bd
000001a0: 455e 0dbd 7a9b 23ba c514 fbbc 432a bebd
000001b0: 0ab2 4c3e ac35 363e 0de4 0b3e 3de2 473d
000001c0: 156b 16be a550 cebe eeb5 9dbe 3692 533e
000001d0: 4d21 32be efae 88bc 79db 9fbc 255d f7bd
000001e0: c437 8bbe 646a 91be 94c0 12bd 30a1 443e
000001f0: 7d6f 7bbe db7c cfbc 8df9 70bd 2eef 263e
00000200: 6777 56be 93aa 0c3e edcd f53d 51b6 8cbe
00000210: b56f d83c 05c7 1bbe ce05 80be 881b 8ebd
00000220: ba75 133e 967e 103e 38ca ddbd 1dc3 bd3d
00000230: 1977 bcbd e6b5 e6bd bc96 ddbb 3605 f73d
00000240: f4eb bcbc 393e 50be 58f5 25be 7c9b 5b3c
00000250: aab6 5fbe 7e60 89bd 624d b2bd 4fe1 073e
00000260: 5cec d3bd 8c72 013e be48 c13d ede5 883e
00000270: cdeb 2f3e 1f56 dc3c 44f3 093e ad5a 953d
00000280: e618 dc3e 6806 dc3d 6c52 00be 8566 40be
00000290: d79a 79be c2ff c6bd f805 4bbe 0ff9 26be
000002a0: f49f 863d 5e76 99bd 5a22 e33a fa99 803c
000002b0: f84e 223e 8d33 a33e 0362 9e3e a742 6d3d
000002c0: 3bf0 43be 2c09 98be 7020 46be 69f5 c23d
000002d0: a7f7 2abe 602c a43c b59b 94bd 134a 313e
000002e0: 6e9f b3be 5a09 49be c07e 9d3d 3c52 573e
000002f0: 40d4 543c cc24 acbe 3c1c a1be 828f cf3d
00000300: b588 33be 8ca7 8b3d 9938 6e3d f169 cd3e
00000310: 4ae2 66bc d54c 33be ce6a 82be 659a 38bd
00000320: 0779 39be dd8f 98be 675e ca3e fcef fe3c
00000330: 906b 50bd 45ef 3abd fbd5 173c 873a 8b3d
00000340: cdf8 973d 8859 15be a5ca a7be 960f 8a3d
00000350: 3436 b7bd 1374 fa3c 1b3a 32bd c325 8bbc
00000360: 3e88 b1bd ef2a 43bd 3c10 64be 695b 38be
00000370: 9003 083d 43f3 733d 27b8 0dbe 2c14 a2bd
00000380: eced 80bd 4d75 3bbe 7000 c1bd 80cc 12be
00000390: c40a f3bd 2c95 e23e 837a 95bd 2a37 1e3c
000003a0: c145 973b 9144 9cbd ac71 60bd 0fa9 3a3d
000003b0: b9be 64be a8cf 973c b97d af3c dca7 6f3d
000003c0: 9065 a5bc 8549 01be 20d2 f03b b59f 11be
000003d0: 6836 c4bd cc36 a1bd c2dc f0bd 02bb acbb
000003e0: 71c6 b7bd 915d 26be 2a55 61bd ca55 53be
000003f0: 0c76 9f3e 28c0 8c3e 6c6c 8b3e a66b a2bd

in3.bn.weight f4 [64]
0.24416642 0.46801305 0.25415933 0.9651511 0.36664516 0.23836122 0.52171385 0.79993695
0.5291284 0.5481776 0.13626666 0.67528355 0.47534132 0.15404914 0.1718553 0.040796824
0.4659023 0.06023111 0.17058077 0.05171871 0.23030928 0.23730765 0.30083907 0.28054783
0.20208572 0.46381095 0.23928799 0.4456017 0.49584466 0.27222934 0.19258668 -0.0014834148
0.12089713 0.17824663 0.010104022 0.39552155 0.24809757 0.45463097 0.3352067 0.18565436
0.6622772 0.54721844 0.0071300077 0.54118514 0.32085732 0.692054 0.024304362 0.21009064
0.643999 0.7898985 0.65404224 0.20953813 0.6308147 0.21001063 0.10500024 0.54808515
0.34625635 0.21753405 0.09913932 0.28283262 0.1736477 0.7791193 0.6541612 0.21484062
00000000: c306 7a3e 689f ef3e 2c21 823e 2414 773f
00000010: eab8 bb3e f714 743e 0a8f 053f abc8 4c3f
00000020: f574 073f 5e55 0c3f 7d89 0b3e 62df 2c3f
00000030: f05f f33e 0fbf 1d3e d6fa 2f3e 921a 273d
00000040: bf8a ee3e e5b4 763d baac 2e3e 00d7 533d
00000050: 32d6 6b3e c700 733e 9407 9a3e f7a3 8f3e
00000060: 8fef 4e3e a178 ed3e e907 753e e825 e43e
00000070: 5adf fd3e a561 8b3e 7135 453e 246f c2ba
00000080: ea98 f73d 4986 363e 578b 253c cd81 ca3e
00000090: 4a0d 7e3e 64c5 e83e 36a0 ab3e 2d1c 3e3e
000000a0: 008b 293f 8216 0c3f d7a2 e93b 1c8b 0a3f
000000b0: 6947 a43e 732a 313f f119 c73c 0022 573e
000000c0: 1edd 243f ca36 4a3f 506f 273f 2a91 563e
000000d0: 127d 213f 070d 573e 5e0a d73d 4f4f 0c3f
000000e0: 8348 b13e 3fc1 5e3e 8e09 cb3d 70cf 903e
000000f0: b4d0 313e 5d74 473f 1c77 273f 2eff 5b3e

in3.bn.bias f4 [64]
-0.12003534 -0.25296342 -0.053493734 0.49990544 0.11267484 -0.065990135 -0.24404003 -0.26745784
0.28637597 0.06378258 -0.12617485 -0.02504011 -0.30371368 -0.019428883 -0.12051772 0.06511357
0.07855777 -0.017979193 -0.13462496 -0.082762115 -0.12541007 0.29274806 -0.030131934 -0.16473429
-0.10116172 -0.17305319 -0.052283145 -0.06936969 0.034452632 0.074797854 -0.093647495 0.0031000597
0.14360906 -0.009309245 0.0031449606 0.05509723 -0.0038120071 0.16612652 0.08792351 -0.1514554
-0.10588083 -0.08417581 -0.0047208844 -0.06842694 -0.07829739 -0.35379368 0.028761892 -0.1520273
0.34595245 -0.35056728 -0.08949533 -0.065648966 -0.35494256 -0.15629579 0.14534165 -0.2900169
0.046575278 -0.110349104 0.021597408 -0.010387646 -0.1425165 0.029961132 -0.032737937 -0.034477487
00000000: 17d5 f5bd 6c84 81be 3f1c 5bbd 9bf3 ff3e
00000010: 11c2 e63d d625 87bd a1e5 79be 3cf0 88be
00000020: df9f 923e 71a0 823d fb33 01be eb20 cdbc
00000030: 5c80 9bbe 5229 9fbc ffd1 f6bd 435a 853d
00000040: e5e2 a03d 1a49 93bc 20db 09be 2f7f a9bd
00000050: 7f6b 00be 13e3 953e 3fd7 f6bc 1bb0 28be
00000060: e02d cfbd db34 31be da26 56bd b211 8ebd
00000070: 341e 0d3d 9e2f 993d 42ca bfbd 5f2a 4b3b
00000080: 410e 133e ce85 18bc af1b 4e3b a2ad 613d
00000090: ded2 79bb 121d 2a3e 3e11 b43d 2017 1bbe
000000a0: 0cd8 d8bd 5e64 acbd a6b1 9abb 6c23 8cbd
000000b0: 625a a0bd 7224 b5be 0f9e eb3c 0bad 1bbe
000000c0: ae20 b13e 8e7d b3be 5449 b7bd f772 86bd
000000d0: 08bb b5be 010c 20be 71d4 143e 187d 94be
000000e0: b8c5 3e3d b6fe e1bd 0ced b03c f230 2abc
000000f0: d8ef 11be 0c71 f53c 3718 06bd 4438 0dbd

in3.bn.running_mean f4 [64]
-1.0167596 -0.746658 -0.8273267 0.09658845 -0.14893048 -0.8996611 -0.78905 -0.027807029
-0.21458483 -0.11706193 -0.2387764 -0.09395287 -0.8317073 -0.34840658 -0.33348343 -0.09304679
-0.04120895 -0.19876423 -0.39491132 -0.2556716 -0.87546265 -0.12950507 -0.3453679 -0.46705693
-0.8925698 -0.7475067 -0.9276305 -0.3241304 -0.39337817 -0.82081616 -0.65587014 -0.0104772495
0.2731645 -0.4090702 0.020846816 0.08780061 -0.29073265 -0.386315 -0.2142103 -0.6286438
-0.44005695 -0.29850373 -0.02092252 -0.27762917 -0.77180415 0.09271953 -0.24420258 -0.9621061
0.01292545 0.10233042 -0.2504021 -0.33720237 0.3298362 -0.42686877 0.009955645 -0.33122322
-0.18879797 -0.5305223 -0.36675334 -0.34739706 -0.6093144 -0.3169923 -0.090581715 -0.6002004
00000000: 2e25 82bf fb24 3fbf afcb 53bf 2ad0 c53d
00000010: 3b81 18be 3150 66bf 2eff 49bf 91cb e3bc
00000020: 20bc 5bbe 2abe efbd cd81 74be 5d6a c0bd
00000030: c5ea 54bf 5962 b2be 57be aabe 518f bebd
00000040: b7ca 28bd da88 4bbe d131 cabe 63e7 82be
00000050: 521e 60bf fa9c 04be 10d4 b0be 1622 efbe
00000060: 747f 64bf 995c 3fbf 3179 6dbf 6bf4 a5be
00000070: dd68 c9be 0221 52bf 1be7 27bf c5a8 2bbc
00000080: 38dc 8b3e a671 d1be f1c6 aa3c ced0 b33d
00000090: e9da 94be 14cb c5be f259 5bbe cdee 20bf
000000a0: 254f e1be 7bd5 98be b465 abbc 6925 8ebe
000000b0: f594 45bf bde3 bd3d 3e10 7abe 964c 76bf
000000c0: 44c5 533c 9c92 d13d b434 80be caa5 acbe
000000d0: 4ae0 a83e 8b8e dabe 001d 233c 1796 a9be
000000e0: 4154 41be 4fd0 07bf 18c7 bbbe 07de b1be
000000f0: 07fc 1bbf d14c a2be e882 b9bd bca6 19bf

in3.bn.running_var f4 [64]
0.977243 0.6039378 0.7966467 0.5678677 1.0794499 0.9793402 0.66308683 0.30251634
0.8279718 0.39923123 0.45891193 0.41200614 0.6216032 0.6101132 0.6023698 1.8948951
1.2518566 1.280033 0.63513905 1.256309 0.8680779 0.51474386 0.64398175 0.8918524
0.8205916 0.68378556 0.819128 0.7573299 0.73760337 0.89972395 0.75058705 1.5335885
1.577812 0.5620289 1.5615283 2.9117572 0.8096615 0.9628574 0.7866392 0.6275441
0.6265843 0.69668746 1.3042867 0.7263056 1.0612955 0.29728606 1.3583744 0.82469
0.40461496 0.31671378 0.60003304 0.6788359 0.50731516 0.75065947 2.2763476 0.3714472
1.3023165 0.71849716 1.0872798 0.7336409 0.62392604 0.3582159 0.2711318 0.78810555
00000000: 992c 7a3f ab9b 1a3f 0af1 4b3f c75f 113f
00000010: 6a2b 8a3f 0ab6 7a3f 0fc0 293f 6ce3 9a3e
00000020: f6f5 533f 0968 cc3e 81f6 ea3e 78f2 d23e
00000030: 6321 1f3f 6130 1c3f e834 1a3f ec8b f23f
00000040: d63c a03f 1fd8 a33f 7998 223f bcce a03f
00000050: 5a3a 5e3f 41c6 033f fddb 243f 7050 643f
00000060: 4b12 523f 920c 2f3f 5fb2 513f 5fe0 413f
00000070: 93d3 3c3f 4f54 663f 7926 403f a14c c43f
00000080: bef5 c93f 20e1 0f3f 29e0 c73f 3b5a 3a40
00000090: fa45 4f3f d37d 763f 3061 493f bba6 203f
000000a0: d467 203f 1c5a 323f def2 a63f 2aef 393f
000000b0: 88d8 873f e135 983e 36df ad3f e21e 533f
000000c0: b129 cf3e 4f28 a23e c49b 193f 31c8 2d3f
000000d0: 68df 013f 382b 403f aeaf 1140 542e be3e
000000e0: 4fb2 a63f 6eef 373f fc2b 8b3f e4cf 3b3f
000000f0: 9eb9 1f3f 1368 b73e cad1 8a3e 49c1 493f

concat_attention.conv.weight f4 [64, 192, 3, 3]
0.16808072 0.12099862 0.047692932 0.15312184 0.036138497 0.019048385 0.24609296 0.11372014
0.13126127 -0.050890353 -0.022579359 -0.10237003 0.050246306 0.009583686 -0.07021776 0.14025706
0.09411084 0.051930275 0.14473605 0.20177391 0.04830881 0.2423258 0.18859768 0.021731623
0.3018138 0.23749432 0.20763098 -0.20185478 -0.13277824 -0.21666609 -0.20705143 -0.15136078
-0.27686334 -0.23980473 -0.20266788 -0.2938325 -0.075895816 0.041883495 -0.031181915 -0.050511345
-0.07725891 -0.04384039 -0.052519355 -0.1662564 -0.14593999 0.16394544 0.07263989 0.057877548
0.16151038 0.009930503 0.061089456 0.21034299 0.11223179 0.18452603 -0.05660656 -0.037676223
-0.12575395 0.041188203 -0.011816457 -0.07362599 0.11506762 0.02639962 -0.002202228 -0.2533963
-0.20519786 -0.3096712 -0.32174593 -0.17517492 -0.24683721 -0.23962547 -0.15750183 -0.12852018
0.05406629 0.23313877 0.08944951 0.07627996 0.2531685 0.22162518 0.07102677 0.12961166
0.081453234 -0.0025286034 0.07423169 -0.05905554 0.16992031 0.041897632 -0.05228618 0.1948476
0.0019657002 -0.053876672 0.1833896 0.22735433 0.29631022 0.06255329 0.075880446 0.23755504
0.062330727 0.14103708 0.24156846 -0.05504363 0.080010116 -0.01832802 0.0663661 -0.018989025
-0.09851211 0.06255694 -0.10623034 -0.17400391 -0.06111014 -0.03456392 -0.1053772 0.026156304
-0.0023818717 -0.05375677 0.121814996 0.046999343 0.042530976 0.27781424 0.37221786 0.32404488
0.14974834 0.18093096 0.24466597 0.032884967 0.00846742 0.11706809 0.21210743 0.2370315
0.28105545 0.15764709 0.18855578 0.27277517 0.19726917 0.17409316 0.24850394 -0.07904343
-0.13124591 -0.13189043 -0.08410634 -0.11673522 -0.08108986 -0.10004766 -0.08094225 -0.040137157
-0.117547065 0.0049553816 -0.08925417 -0.0483098 -0.09255515 -0.08830431 -0.036625486 -0.1745859
-0.14954653 0.1085837 0.07607092 0.032178883 0.12600145 0.10359312 0.046531167 0.094276175
0.11739802 0.09680168 0.21983552 0.34234008 0.3799211 0.15687127 0.23793429 0.38760978
0.11088725 0.20630474 0.3862468 0.16510671 0.12516467 0.10220679 0.17896892 0.14813644
0.107554235 0.16364028 0.18966109 0.16662923 0.108586274 0.15744558 0.011332116 0.18634649
0.13993862 0.11139883 0.2557059 0.19916591 0.2085405 -0.049016997 0.2715069 0.14650312
-0.114096545 0.039919086 0.1768317 -0.19689356 -0.12768352 0.03201749 0.06451984 0.11132382
-0.03427852 0.07026881 0.1289621 0.12162635 0.24415737 0.15492985 0.16057049 0.074715406
0.18825328 0.08988833 0.09323822 0.15394078 0.08338212 0.18059933 0.081538856 0.05895217
0.29816356 0.272429 0.14408517 0.3186417 0.31325263 0.18426153 0.24202958 0.25974166
0.24800946 -0.046787195 -0.038196098 -0.10218695 0.057977498 0.02508397 -0.05138998 0.14426035
0.050338306 0.03128173 0.045828372 0.07725902 0.068722285 0.08506702 0.03623173 0.016044687
0.1783541 0.06527081 0.094341725 -0.20263244 0.0025092445 -0.07105638 -0.2599632 -0.20207848
-0.08868458 -0.080830574 -0.08006216 -0.12039594 0.1488436 0.12208313 -0.009709159 0.307142
00000000: 5a1d 2c3e 20ce f73d aa59 433d f9cb 1c3e
00000010: f605 143d 5c0b 9c3c cbff 7b3e 1be6 e83d
00000020: 5b69 063e 6772 50bd 59f8 b8bc 61a7 d1bd
00000030: 12cf 4d3d e404 1d3c 54ce 8fbd 8c9f 0f3e
00000040: 2fbd c03d d7b4 543d b035 143e d29d 4e3e
00000050: 75df 453d 4124 783e c01f 413e 8406 b23c
00000060: 5787 9a3e b631 733e 379d 543e 05b3 4ebe
00000070: 05f7 07be b7dd 5dbe 4a05 54be 52fe 1abe
00000080: 08c1 8dbe 5f8f 75be 2b88 4fbe 3771 96be
00000090: 446f 9bbd 078e 2b3d 3771 ffbc fce4 4ebd
000000a0: eb39 9ebd fb91 33bd 891e 57bd 1e3f 2abe
000000b0: 4b71 15be 50e1 273e 39c4 943d 0211 6d3d
000000c0: fa62 253e 8cb3 223c f038 7a3d 2764 573e
000000d0: c8d9 e53d 64f4 3c3e 48dc 67bd 6252 1abd
000000e0: a5c5 00be f6b4 283d d099 41bc 39c9 96bd
000000f0: 93a8 eb3d 0444 d83c 4153 10bb 29bd 81be
00000100: 631f 52be 398d 9ebe e2bb a4be 0e61 33be
00000110: e5c2 7cbe 6160 75be 2948 21be cb9a 03be
00000120: 9d74 5d3d eebb 6e3e 4e31 b73d ab38 9c3d
00000130: 4d9f 813e b6f1 623e 7c76 913d ebb8 043e
00000140: f4d0 a63d edb6 25bb c906 983d 39e4 71bd
00000150: 97ff 2d3e da9c 2b3d 092a 56bd 2186 473e
00000160: fad2 003b c9ad 5cbd 7cca 3b3e 93cf 683e
00000170: f9b5 973e f01b 803d 3567 9b3d a141 733e
00000180: 814e 7f3d 066c 103e b95d 773e 6e75 61bd
00000190: 58dc a33d a524 96bc f3ea 873d df8e 9bbc
000001a0: b8c0 c9bd da1d 803d 4b8f d9bd 152e 32be
000001b0: a04e 7abd e692 0dbd 00d0 d7bd bf45 d63c
000001c0: 2d19 1cbb 0f30 5cbd 247a f93d 6282 403d
000001d0: f634 2e3d ab3d 8e3e 5793 be3e 36e9 a53e
000001e0: a157 193e f745 393e b789 7a3e 63b2 063d
000001f0: efba 0a3c 65c1 ef3d b132 593e 63b8 723e
00000200: 80e6 8f3e 3d6e 213e c414 413e 30a9 8b3e
00000210: ee00 4a3e 7a45 323e d177 7e3e 86e1 a1bd
00000220: 5465 06be 490e 07be f23f acbd e012 efbd
00000230: 7112 a6bd cae5 ccbd 0dc5 a5bd dc66 24bd
00000240: 84bc f0bd c160 a23b e4ca b6bd 7fe0 45bd
00000250: 8e8d bdbd e4d8 b4bd 9b04 16bd a5c6 32be
00000260: ba22 19be 2261 de3d 12cb 9b3d 01ce 033d
00000270: 8606 013e a128 d43d 7797 3e3d de13 c13d
00000280: 606e f03d f63f c63d 901c 613e 3347 af3e
00000290: 0585 c23e dda2 203e 0ca5 733e ca74 c63e
000002a0: db18 e33d 8d41 533e 24c2 c53e bc11 293e
000002b0: 2b2b 003e cb51 d13d a143 373e 14b1 173e
000002c0: 6545 dc3d 5191 273e 8436 423e daa0 2a3e
000002d0: 7b62 de3d 6a39 213e 57aa 393c 9dd1 3e3e
000002e0: 124c 0f3e 1225 e43d e2eb 823e 26f2 4b3e
000002f0: a48b 553e 0cc6 48bd f402 8b3e ea04 163e
00000300: 73ab e9bd 3282 233d 5f13 353e 779e 49be
00000310: 78bf 02be c624 033d fa22 843d befd e33d
00000320: a267 0cbd 18e9 8f3d a40e 043e 3c17 f93d
00000330: 6404 7a3e eea5 1e3e 976c 243e 6404 993d
00000340: 78c5 403e 5f17 b83d aef3 be3d a7a2 1d3e
00000350: 3fc4 aa3d 08ef 383e d8fd a63d d577 713d
00000360: e5a8 983e d07b 8b3e 108b 133e 0125 a33e
00000370: a662 a03e 0eaf 3c3e 9ad6 773e dcfc 843e
00000380: 31f6 7d3e eea3 3fbd 8373 1cbd 6447 d1bd
00000390: d079 6d3d e67c cd3c 4d7e 52bd fcb8 133e
000003a0: 8a2f 4e3d 4521 003d 88b6 3b3d fa39 9e3d
000003b0: 45be 8c3d 9e37 ae3d b967 143d 2670 833c
000003c0: 75a2 363e b4ac 853d 3c36 c13d e17e 4fbe
000003d0: 2372 243b 0286 91bd e619 85be a9ed 4ebe
000003e0: 43a0 b5bd 808a a5bd a1f7 a3bd 2692 f6bd
000003f0: 756a 183e b806 fa3d 2a13 1fbc b741 9d3e

concat_attention.conv.bias f4 [64]
-0.1971706 0.1812059 -0.07686556 -0.09863929 0.07444261 0.18288654 -0.22027577 0.2340867
-0.16833566 0.17420791 -0.16663113 -0.16740653 -0.0064797006 0.3115178 -0.1804708 -0.21244664
0.16464448 -0.0920799 -0.21184072 0.09916496 -0.15266582 0.17134249 0.23394981 0.17080227
-0.19326556 -0.15921372 0.16338976 0.28433707 0.08123927 0.17296693 0.008419891 -0.033573277
-0.16683406 0.16224876 0.19073716 -0.22432819 -0.14889638 -0.176086 -0.13403022 -0.043444052
0.1972099 0.14472738 -0.1954929 0.16694222 -0.14910755 -0.1581929 -0.16787562 -0.20524842
-0.17781343 -0.2244322 -0.08715652 -0.21898492 0.12505685 -0.16794856 0.16542779 -0.27178943
0.11185288 -0.1543119 0.19438742 0.18432547 0.17366874 -0.15596113 -0.20887968 0.12833412
00000000: 17e7 49be 0a8e 393e b16b 9dbd 6503 cabd
00000010: 5e75 983d 9c46 3b3e f98f 61be 6db4 6f3e
00000020: 2f60 2cbe 8f63 323e 5aa1 2abe 9e6c 2bbe
00000030: ab53 d4bb 437f 9f3e 56cd 38be 9d8b 59be
00000040: 9098 283e 6394 bcbd c6ec 58be 0017 cb3d
00000050: 6e54 1cbe 6874 2f3e 8a90 6f3e cae6 2e3e
00000060: 68e7 45be ec08 23be a54f 273e a194 913e
00000070: c660 a63d 3e1e 313e 95f3 093c 2284 09bd
00000080: 8cd6 2abe 8a24 263e 9a50 433e 4ab6 65be
00000090: 4b78 18be e34f 34be 383f 09be 64f2 31bd
000000a0: 64f1 493e 6a33 143e 4a2f 48be e7f2 2a3e
000000b0: a6af 18be 52fd 21be 96e7 2bbe a42c 52be
000000c0: b914 36be 8ed1 65be 1e7f b2bd 953d 60be
000000d0: e70e 003e b5fa 2bbe e765 293e fc27 8bbe
000000e0: 1f13 e53d f003 1ebe 7f0d 473e d1bf 3c3e
000000f0: 38d6 313e 46b4 1fbe 8ee4 55be 056a 033e
